model.pth (torch, 90280 bytes, 8 tensors)

conv1.weight f4 [10, 1, 5, 5]
0.5468367 0.50129783 0.43090224 0.37526762 -0.5955168 0.19931151 0.26852664 0.40791503
0.14766653 -0.63889635 -0.16047247 0.30994806 0.40510294 -0.30725774 -0.53960437 0.045268197
-0.35003045 -0.082983576 -0.28567 -0.21642369 0.05556765 -0.17743501 -0.41806176 0.07187125
0.053649593 -0.015137642 0.3116468 0.40764955 0.41071135 0.33723918 0.278438 0.35427704
0.33946562 0.23098436 0.12601091 -0.031166162 -0.13246934 -0.28487232 -0.21946424 -0.21946746
0.07538312 0.25124913 0.18036538 0.18426189 -0.06561129 0.070067756 0.31083757 0.37111682
0.45141932 0.15663905 -0.09154239 0.17143567 0.40130484 0.28549707 -0.039536156 -0.53814787
-0.5534638 -0.45204362 -0.40911755 -0.09905677 0.12304554 -0.09308043 -0.3588241 -0.5454994
-0.3458855 0.62797093 0.3201094 0.20764624 0.29581422 -0.38973033 0.65609616 0.546005
0.3873151 0.059079163 -0.18330303 -0.013724007 0.04755489 -0.012330298 0.12823598 0.09650649
0.28322175 0.15903026 -0.2381448 -0.086439475 0.11212417 0.36865094 0.44757912 -0.031290565
-0.11974795 -0.4130195 -0.016987089 0.20625475 0.11444339 -0.6627046 -0.39109513 0.118372425
0.32353127 -0.46899047 -0.2867246 0.11346496 0.08122484 -0.09118124 0.05281053 -0.13162346
0.2055328 -0.36421442 -0.24160132 0.16116095 0.124185584 0.2818344 -0.41626984 0.15592913
0.18818308 -0.095186494 0.16283032 -0.5629979 0.058681868 0.2879773 0.043762453 -0.050693076
-0.82235456 0.16865669 0.4190377 0.2934859 -0.10885505 0.12897253 0.24717698 -0.14394264
-0.29064906 0.019020448 0.28879282 0.22127494 -0.5824122 -0.5335888 -0.07863513 0.119321905
-0.11468628 -0.30639678 0.31897342 0.28777963 -0.16036634 0.2317693 0.3828604 0.5038234
0.5168346 -0.04315894 0.5289651 0.5108632 0.54556906 0.4001275 -0.312613 -0.052247938
-0.21725999 -0.012053528 0.15765584 0.13463295 0.03371275 0.23442145 0.04495351 -0.26807946
0.38115394 -0.06689822 0.059353855 -0.15936986 -0.18934377 -0.042755466 0.042306967 0.12660688
-0.06634407 -0.24623609 0.037996177 0.27240315 0.033077724 0.24424237 -0.33996615 0.40513209
0.35167587 0.44416422 -0.16143495 -0.70138067 0.40207684 0.49037495 0.43400323 0.025897184
-0.71043354 0.42741072 0.45008898 0.49846655 -0.19499731 -0.8365615 -0.017912678 0.033763416
0.18312195 -0.449171 -0.58048147 0.16211037 0.115795776 -0.060696747 -0.09034448 0.17380723
-0.21665719 0.22205824 -0.02763731 0.16183099 -0.0864599 -0.4834105 0.12479889 0.1967299
0.05864953 -0.14594379 -0.60957503 0.38281465 0.1940097 0.35677984 0.21218668 -0.65675485
0.3351722 0.29977044 0.18073446 0.3482537 -0.71605927 -0.13805196 -0.23723415 -0.1416466
0.12015511 -0.11233002 0.1464493 0.2503024 -0.35862818 -0.4100167 -0.23722617 0.08869512
-0.11177258 -0.47674713 -0.32831246 -0.58067036 0.07597665 0.40647468 0.56130534 -0.02439571
-0.6053299 0.41942778 0.5841659 0.65442204 -0.008963753 -0.18093894 0.5189856 0.5872049
0.5736711 0.24741939
00000000: 7dfd 0b3f 0e55 003f 389f dc3e 1423 c03e
00000010: ca73 18bf 5118 4c3e 537c 893e 3dda d03e
00000020: e535 173e b68e 23bf e552 24be 83b1 9e3e
00000030: a769 cf3e e350 9dbe 8323 0abf 256b 393d
00000040: 3137 b3be 4bf3 a9bd 5743 92be 2c9e 5dbe
00000050: e79a 633d 86b1 35be 310c d6be 3c31 933d
00000060: adbf 5b3d df03 78bc 2b90 9f3e 71b7 d03e
00000070: c248 d23e 9daa ac3e 6d8f 8e3e cd63 b53e
00000080: 70ce ad3e 2a87 6c3e 0109 013e 2e50 ffbc
00000090: 0ba6 07be c9da 91be 3cbb 60be 14bc 60be
000000a0: 7762 9a3d baa3 803e b4b1 383e 26af 3c3e
000000b0: 365f 86bd af7f 8f3d 1a26 9f3e 0603 be3e
000000c0: 6f20 e73e fd65 203e 947a bbbd d58c 2f3e
000000d0: d477 cd3e ac2c 923e aaf0 21bd 0fc4 09bf
000000e0: ceaf 0dbf 4372 e7be db77 d1be 47de cabd
000000f0: 4dff fb3d f4a0 bebd cbb7 b7be d9a5 0bbf
00000100: e717 b1be b4c2 203f 61e5 a33e 37a1 543e
00000110: f674 973e bc8a c7be ebf5 273f fcc6 0b3f
00000120: 2a4e c63e fefc 713d cab3 3bbe a8da 60bc
00000130: ebc8 423d 0505 4abc 4b50 033e 32a5 c53d
00000140: 7102 913e d4d8 223e 3bdc 73be 2e07 b1bd
00000150: 5ba1 e53d d1bf bc3e 1729 e53e 892a 00bd
00000160: 6a3e f5bd 4b77 d3be 8228 8bbc 7234 533e
00000170: 4c61 ea3d 02a7 29bf 9f3d c8be 3e6d f23d
00000180: e4a5 a53e 851f f0be 91cd 92be 5160 e83d
00000190: 3559 a63d 3bbd babd db4f 583d 4dc8 06be
000001a0: 3177 523e 507a babe 5666 77be 6007 253e
000001b0: 0355 fe3d 994c 903e 5221 d5be e3ab 1f3e
000001c0: 11b3 403e 23f1 c2bd febc 263e a120 10bf
000001d0: 665c 703d c371 933e 4240 333d 8ba3 4fbd
000001e0: d485 52bf 57b4 2c3e 1c8c d63e c943 963e
000001f0: 65ef debd 6011 043e f61b 7d3e b365 13be
00000200: f4cf 94be c5d0 9b3c a7dc 933e e695 623e
00000210: f718 15bf 4799 08bf 740b a1bd 0b5f f43d
00000220: a4e0 eabd 0ae0 9cbe 7c50 a33e da57 933e
00000230: 1337 24be ee54 6d3e 4706 c43e 92fa 003f
00000240: 464f 043f 6ec7 30bd 426a 073f eec7 023f
00000250: 6aaa 0b3f 83dd cc3e d00e a0be ef01 56bd
00000260: 6779 5ebe 297c 45bc 8870 213e 38dd 093e
00000270: 6116 0a3d 2d0c 703e 2c21 383d b641 89be
00000280: 9c26 c33e ef01 89bd 071d 733d da31 23be
00000290: 55e3 41be 5b20 2fbd 124a 2d3d 3ca5 013e
000002a0: 66df 87bd 5025 7cbe e1a1 1b3d 6d78 8b3e
000002b0: 827c 073d ac1a 7a3e 0b10 aebe 796d cf3e
000002c0: dc0e b43e 7e69 e33e 344f 25be af8d 33bf
000002d0: 04dd cd3e 6d12 fb3e ac35 de3e 5526 d43c
000002e0: f9de 35bf 94d5 da3e 1072 e63e 0237 ff3e
000002f0: 60ad 47be e528 56bf 9cbd 92bc 824b 0a3d
00000300: 5284 3b3e bef9 e5be 6f9a 14bf 4300 263e
00000310: 5626 ed3d 279d 78bd 8706 b9bd 86fa 313e
00000320: 62db 5dbe 3c63 633e a467 e2bc 06b7 253e
00000330: e311 b1bd 9581 f7be 8f96 ff3d 9073 493e
00000340: 7d3a 703d 4a72 15be 1c0d 1cbf 4800 c43e
00000350: 7baa 463e d9ab b63e 7747 593e 1621 28bf
00000360: b19b ab3e 837b 993e 7412 393e 4f4e b23e
00000370: a94f 37bf 7e5d 0dbe 82ed 72be ce0b 11be
00000380: e213 f63d 480d e6bd cef6 153e a327 803e
00000390: 1d9e b7be b5ed d1be 6beb 72be c9a5 b53d
000003a0: 06e9 e4bd 3318 f4be 9218 a8be d0a6 14bf
000003b0: a599 9b3d 731d d03e b5b1 0f3f 83d9 c7bc
000003c0: e6f6 1abf 3dbf d63e e58b 153f 3488 273f
000003d0: b4dc 12bc 0f48 39be 3edc 043f 0f53 163f
000003e0: 1cdc 123f 825b 7d3e

conv1.bias f4 [10]
0.16290893 0.03423 0.3563159 0.28499237 0.27942193 0.110697396 0.18778566 0.093536556
0.2702402 0.42290932
00000000: 99d1 263e c234 0c3d 0a6f b63e 85ea 913e
00000010: 6410 8f3e 51b5 e23d e24a 403e 1890 bf3d
00000020: ec5c 8a3e 9287 d83e

conv2.weight f4 [20, 10, 5, 5]
0.069496654 0.093621515 -0.055637844 0.058264654 0.024561109 -0.02961389 -0.113146335 0.077591345
0.14592758 -0.008365319 -0.16513625 -0.09011636 0.042321883 0.103861585 0.0069892155 -0.029887164
0.08464586 -0.03632325 -0.06141105 -0.006109524 0.006853067 -0.002455277 0.02478607 0.0536738
-0.078211896 -0.1589977 0.05287319 0.009426087 -0.046591125 -0.039755072 -0.13401024 -0.014268893
-0.018872026 0.056833073 0.07508163 -0.109136544 0.01702927 0.06610277 -0.0055543445 -0.025528409
-0.07792983 -0.018996187 -0.05425694 0.0027354378 0.18759395 -0.0026657972 0.037045207 -0.02110336
-0.068234056 -0.08180913 -0.0627583 -0.12188238 -0.032465983 0.078017704 -0.04708045 0.017282944
0.0032021129 0.00087617006 -0.061853636 0.09139904 -0.024972232 0.18308398 0.15590666 0.094384536
0.06702717 -0.04668868 0.030369177 0.095218904 0.046760567 0.31516552 -0.02784849 0.09502101
-0.0046761394 -0.11269937 0.12850177 0.11679977 -0.055445567 -0.10629535 0.021569217 -0.013250402
-0.032594126 -0.022397704 0.108241305 0.15604274 0.029296242 0.044605467 0.034863323 0.019993506
0.05464796 0.054474182 -0.04113346 0.08969178 0.024694294 0.09501148 -0.02471047 0.021284204
-0.03579038 -0.030375049 -0.10449333 -0.00024512608 -0.062010255 0.22543631 0.0006965253 0.023515558
0.007273917 -0.005707534 0.17046128 -0.035689767 0.03913441 -0.034329567 0.053646505 0.016855234
-0.030926045 0.06785042 -0.08254555 -0.041586284 0.0035823719 -0.051589373 0.012068664 -0.073838286
-0.0054438347 0.01532802 -0.02121819 0.021013228 -0.005758146 -0.13947365 0.011106945 0.061864734
0.024006411 -0.05805062 -0.021277215 -0.12388828 -0.051523354 -0.11797368 0.09835353 0.13690469
0.006581344 -0.12857698 -0.07246745 -0.107482485 0.024924435 0.051191524 0.04253779 0.021829296
0.0036472538 0.009180174 0.03417834 0.09130217 0.17530948 0.10348137 0.011373459 -0.077444345
-0.0006754456 -0.047388777 -0.057668045 -0.05980559 -0.05701427 0.003807693 -0.04317291 0.055126928
0.010181468 0.005901148 0.08248691 -0.0018032425 -0.027620133 0.058405843 0.07715683 -0.012526047
0.09361323 -0.030590897 0.010840166 -0.038419683 -0.010026015 -0.015780246 0.02243068 0.041621715
-0.029475521 -0.03548565 -0.004368284 0.07406903 -0.08361121 -0.11578147 0.045676276 0.10047261
0.004456487 -0.15250666 -0.14141883 0.060658403 0.028524993 -0.06373582 -0.05689326 0.07131702
0.074341156 0.00984968 -0.12461586 -0.122951895 0.029225871 -0.051024385 -0.006314424 -0.02512629
-0.05860297 0.14566503 -0.011973936 0.101907335 0.039752286 -0.020273617 0.22283132 0.036510024
-0.016414274 -0.04562847 -0.065185845 0.108733766 -0.05624932 0.04702528 0.12075661 -0.040587258
0.12998971 -0.06262766 -0.014224051 -0.16098143 -0.036249448 0.105583586 -0.004881751 0.05867457
0.0045978283 -0.30266225 0.25400987 -0.0018477816 0.05795245 -0.15546457 -0.14267513 0.10731769
-0.027620217 -0.090847544 0.059463788 0.047376353 0.05085622 -0.024019621 -0.04545503 -0.03786289
-0.1269721 0.13276644 0.007902192 0.1654763 -0.08736681 -0.068959616 0.19326481 0.00903455
0.1569378 0.11688909 0.011180593 -0.04761065 -0.06841188 -0.016086008 0.049337596 -0.026331475
00000000: 4354 8e3d a3bc bf3d 82e4 63bd eba6 6e3d
00000010: 6134 c93c d498 f2bc 44b9 e7bd 36e8 9e3d
00000020: 0a6e 153e b10e 09bc 7a19 29be ed8e b8bd
00000030: b659 2d3d 62b5 d43d ca05 e53b edd5 f4bc
00000040: cf5a ad3d b0c7 14bd 278a 7bbd 6732 c8bb
00000050: b18f e03b b6e8 20bb 280c cb3c 0fd9 5b3d
00000060: 8f2d a0bd 4bd0 22be 8f91 583d e06f 1a3c
00000070: 56d6 3ebd 37d6 22bd fb39 09be 13c8 69bc
00000080: 8299 9abc ccc9 683d 66c4 993d fb82 dfbd
00000090: f880 8b3c e460 873d 3801 b6bb f420 d1bc
000000a0: ad99 9fbd e49d 9bbc 863c 5ebd 0845 333b
000000b0: a118 403e a8b4 2ebb b7bc 173d f4e0 acbc
000000c0: 4cbe 8bbd 8c8b a7bd 6c87 80bd 789d f9bd
000000d0: 0dfb 04bd bfc7 9f3d 6ed7 40bd f694 8d3c
000000e0: 8ada 513b c7ae 653a 3d5a 7dbd 6b2f bb3d
000000f0: 9192 ccbc 5e7a 3b3e ffa5 1f3e ae4c c13d
00000100: 8a45 893d a13c 3fbd c8c8 f83c 2102 c33d
00000110: 0288 3f3d 605d a13e 8422 e4bc 609a c23d
00000120: 4d3a 99bb edce e6bd f895 033e b834 ef3d
00000130: e41a 63bd 60b1 d9bd edb1 b03c 3718 59bc
00000140: 6b81 05bd 647b b7bc 9ead dd3d abc9 1f3e
00000150: acfe ef3c 39b4 363d d8cc 0e3d 6cc9 a33c
00000160: 8ad6 5f3d 5220 5f3d 8f7b 28bd 53b0 b73d
00000170: b04b ca3c 6195 c23d 9d6d cabc 365c ae3c
00000180: ef98 12bd 18d5 f8bc 9900 d6bd 4484 80b9
00000190: 77fe 7dbd c7d8 663e 0697 363a b3a3 c03c
000001a0: 0a5a ee3b 4406 bbbb 678d 2e3e 6f2f 12bd
000001b0: 674b 203d 299d 0cbd 70bc 5b3d fd13 8a3c
000001c0: 9e58 fdbc 29f5 8a3d a40d a9bd 6156 2abd
000001d0: 3ac6 6a3b 614f 53bd a5bb 453c 8738 97bd
000001e0: 3262 b2bb 6022 7b3c c5d1 adbc ef23 ac3c
000001f0: d4ae bcbb 2ed2 0ebe e7f9 353c e065 7d3d
00000200: 18a9 c43c 7dc6 6dbd 8e4d aebc 23b9 fdbd
00000210: 270a 53bd 2f9c f1bd 936d c93d be30 0c3e
00000220: 51a8 d73b afa9 03be d069 94bd c71f dcbd
00000230: 542e cc3c 34ae 513d 1b3c 2e3d 5ad3 b23c
00000240: c406 6f3b 7168 163c 96fe 0b3d a2fc ba3d
00000250: 5484 333e 0aee d33d bf57 3a3c 249b 9ebd
00000260: 6310 31ba bc1a 42bd 5435 6cbd b5f6 74bd
00000270: cc87 69bd 7d8a 793b 14d6 30bd c6cc 613d
00000280: 2cd0 263c 6b5e c13b e6ee a83d c75a ecba
00000290: 9e43 e2bc f73a 6f3d 6604 9e3d 0d3a 4dbc
000002a0: 4bb8 bf3d c399 fabc f49a 313c f55d 1dbd
000002b0: 2844 24bc 9345 81bc 8cc0 b73c 887b 2a3d
000002c0: a676 f1bc 6759 11bd d223 8fbb 81b1 973d
000002d0: 5b3c abbd d61e edbd 0c17 3b3d 95c4 cd3d
000002e0: b907 923b b52a 1cbe 19d0 10be f274 783d
000002f0: 3fad e93c ed87 82bd e808 69bd a80e 923d
00000300: 2d40 983d 8d60 213c 9a36 ffbd 34ce fbbd
00000310: 186b ef3c f2fe 50bd 3ae9 cebb a6d5 cdbc
00000320: ab09 70bd 3729 153e 542e 44bc cbb4 d03d
00000330: 4bd3 223d db14 a6bc e52d 643e 898b 153d
00000340: 3a77 86bc ebe4 3abd 2880 85bd cfaf de3d
00000350: b065 66bd 949d 403d 3e4f f73d d33e 26bd
00000360: 061c 053e ee42 80bd fe0b 69bc 51d8 24be
00000370: 4d7a 14bd 353c d83d 18f7 9fbb bf54 703d
00000380: 61a9 963b 8cf6 9abe 950d 823e 4331 f2ba
00000390: 8c5f 6d3d 1b32 1fbe 6e19 12be 61c9 db3d
000003a0: cb43 e2bc 470e babd 4d90 733d b50d 423d
000003b0: 9d4e 503d ccc4 c4bc 0e2f 3abd 1e16 1bbd
000003c0: f904 02be edf3 073e 3278 013c 9f72 293e
000003d0: 5fed b2bd b33a 8dbd 36e7 453e a605 143c
000003e0: 4db4 203e 8c63 ef3d ce2e 373c 6303 43bd
000003f0: 871b 8cbd cec6 83bc 3816 4a3d 1bb5 d7bc

conv2.bias f4 [20]
0.061244667 -0.062683254 0.051040467 -0.032926224 -0.042631954 -0.0396401 0.02424526 -0.014257773
-0.026359282 0.02079803 0.029075703 0.0032961378 -0.029086638 0.02996936 0.0466833 0.038487196
0.016510714 0.012505728 0.042073436 -0.056317955
00000000: b0db 7a3d 1460 80bd cf0f 513d a6dd 06bd
00000010: d89e 2ebd a85d 22bd ff9d c63c 6f99 69bc
00000020: 6cef d7bc a160 aa3c 2b30 ee3c 0404 583b
00000030: 1a47 eebc 4e82 f53c fd36 3f3d c0a4 1d3d
00000040: 7a41 873c d3e4 4c3c 3255 2c3d a8ad 66bd

fc1.weight f4 [50, 320]
0.0011481917 -0.05658621 -0.019186309 -0.018459091 -0.0019109047 -0.024157401 0.025436938 0.046995208
-0.0452464 -0.027465777 -0.07862109 0.030967737 -0.0011426094 0.00037405497 0.021014197 -0.0068761944
-0.010333731 0.017750587 0.046955176 -0.009655787 -0.017683275 -0.052071273 -0.017477214 0.008051012
0.04855173 0.04423185 -0.018879915 0.005920282 0.0019215851 -0.027141342 -0.013424534 0.009592591
0.009491287 0.07770714 0.085323215 0.07150062 0.029056044 -0.046696242 0.08249943 0.09654034
-0.019436397 -0.035255898 -0.08433691 -0.055490524 0.07018009 0.025094738 -0.0647615 0.005398429
-0.030800147 0.049145564 0.029715816 0.011035643 0.026916895 -0.004093363 -0.04052263 0.024302596
0.014759757 -0.07791117 0.053090625 -0.051459916 0.02088828 0.052626166 -0.015112701 -0.066055484
-0.027980486 -0.05262813 0.013828172 -0.032616217 -0.06755501 0.020175308 0.07112585 -0.038835905
-0.048872422 0.033841334 -0.039007727 0.015162764 0.0050666872 0.023954079 -0.13235083 0.00262835
-0.039411686 -0.0022893697 -0.044003814 -0.05086976 -0.008689944 -0.017698169 -0.038082734 -0.011493977
0.055500522 -0.044386264 -0.037137225 -0.0327491 -0.028211785 -0.042024262 0.043065593 -0.050263345
-0.012651572 -0.01963353 -0.0039376044 0.06739352 0.022684949 0.001338516 0.040145405 0.02629661
-0.017213348 -0.029914094 -0.037454385 0.01859335 -0.0005564707 -0.04652969 0.04507043 -0.008350191
0.046286684 0.04544432 0.0579833 -0.015667427 -0.06727125 0.0019005988 -0.032533307 -0.01957299
-0.036713317 0.016062694 0.09253284 -0.03358237 -0.045033596 0.016073471 -0.105495036 0.025655089
-0.015587704 -0.0076284325 -0.018101053 -0.048221555 0.027762707 0.012260554 -0.04741593 -0.022714857
-0.049257364 -0.040203188 0.018129319 0.055190966 0.028727071 0.017847609 0.042868704 -0.039285857
0.054867744 -0.00547548 -0.03119552 0.062498085 0.046391465 -0.010297614 0.025669483 0.050485548
-0.03538883 -0.061533686 0.028805397 -0.029513827 0.026436068 0.011242315 -0.050709825 0.046796788
0.008883708 0.044205237 -0.04243998 0.042251773 -0.035791747 -0.013098405 0.008689662 0.02620731
-0.021177193 -0.024639746 0.09226968 -0.0067566196 0.009820966 0.06772527 -0.13536155 -0.057143707
0.024726145 -0.045298684 -0.03407124 0.003337688 0.035994522 -0.0095495675 -0.06278445 0.019175312
0.0035417355 0.064981624 0.063189544 -0.09140939 0.003957056 0.019822143 0.054757256 0.05443474
-0.01974335 -0.04018733 -0.017924832 0.023021143 -0.022912417 0.056911714 0.033440802 0.050147515
0.056126684 0.027751694 0.08769145 0.077295706 -0.018481437 0.016584681 -0.087302014 0.10092317
0.015060054 0.009507353 0.013108634 0.055112187 -0.05928373 0.0048401384 0.082101434 -0.022886883
-0.004246754 0.024758883 0.053141635 0.017709611 -0.03408125 0.025972769 -0.0107810795 0.022430915
0.052969284 0.076562785 0.030178973 0.043470223 0.05586336 -0.028600633 0.046608258 0.13106602
0.0714872 -0.033930186 -0.04595471 0.0038036024 0.009522343 -0.05496308 0.01707867 -0.06482454
0.036898933 0.0313294 -0.015544103 -0.0070490683 -0.02910181 0.03172226 -0.06227169 -0.039258845
-0.013908797 0.057354227 0.017692408 0.0072099403 0.01908468 -0.031582456 0.03591829 -0.028301569
00000000: ec7e 963a f1c6 67bd 9b2c 9dbc 8537 97bc
00000010: 5277 faba bee5 c5bc 2061 d03c 0c7e 403d
00000020: 4a54 39bd e9ff e0bc 1804 a1bd 0db0 fd3c
00000030: 9cc3 95ba cf1c c439 f725 ac3c b351 e1bb
00000040: cf4e 29bc ae69 913c 1254 403d 4e33 1ebc
00000050: 84dc 90bc b048 55bd 602c 8fbc 64e8 033c
00000060: 2ede 463d 752c 353d 0daa 9abc edfe c13b
00000070: b2dd fb3a 8557 debc 94f2 5bbc 3e2a 1d3c
00000080: 5881 1b3c ec24 9f3d f0bd ae3d eb6e 923d
00000090: f106 ee3c 8f44 3fbd 76f5 a83d f1b6 c53d
000000a0: 1439 9fbc 7d68 10bd d4b8 acbd 084a 63bd
000000b0: 94ba 8f3d 7b93 cd3c ada1 84bd 4ee5 b03b
000000c0: 9750 fcbc dc4c 493d 956e f33c d7ce 343c
000000d0: d280 dc3c 9e21 86bb 0ffb 25bd 3d16 c73c
000000e0: e8d2 713c e48f 9fbd 8e75 593d a2c7 52bd
000000f0: e61d ab3c 898e 573d 439b 77bc 1948 87bd
00000100: 5537 e5bc 9890 57bd 8f8f 623c 9598 05bd
00000110: 485a 8abd b046 a53c 6eaa 913d 6612 1fbd
00000120: 732e 48bd 369d 0a3d 91c6 1fbd 3e6d 783c
00000130: 7406 a63b 583b c43c fa86 07be 6540 2c3b
00000140: 266e 21bd 4009 16bb 583d 34bd cf5c 50bd
00000150: 4460 0ebc c0fb 90bc a4fc 1bbd 3c51 3cbc
00000160: 8454 633d 5fce 35bd 341d 18bd ec23 06bd
00000170: 671c e7bc a221 2cbd 8c65 303d f0e0 4dbd
00000180: 8a48 4fbc 7fd6 a0bc 0507 81bb 9d05 8a3d
00000190: c9d5 b93c 2571 af3a 826f 243d fd6b d73c
000001a0: 0203 8dbc 670e f5bc c569 19bd 1551 983c
000001b0: 1ee0 11ba eb95 3ebd c59b 383d 3dcf 08bc
000001c0: 1b97 3d3d d323 3a3d e67f 6d3d fa58 80bc
000001d0: 82c5 89bd 831d f93a a541 05bd 8957 a0bc
000001e0: b460 16bd e995 833c dc81 bd3d ab8d 09bd
000001f0: 2675 38bd 83ac 833c c80d d8bd 9f2a d23c
00000200: 9263 7fbc eef7 f9bb a948 94bc f783 45bd
00000210: 9e6e e33c 7ee0 483c 3537 42bd 8214 babc
00000220: 17c2 49bd 19ac 24bd f083 943c ec0f 623d
00000230: 0955 eb3c 2635 923c 1897 2f3d 35ea 20bd
00000240: 00bd 603d a86b b3bb bf8d ffbc fefd 7f3d
00000250: fa04 3e3d 53b7 28bc cf48 d23c efc9 4e3d
00000260: e1f3 10bd bf0a 7cbd 4cf9 eb3c fbc6 f1bc
00000270: 7490 d83c b031 383c 1bb5 4fbd fdad 3f3d
00000280: f98c 113c 8d10 353d 8bd5 2dbd 3210 2d3d
00000290: 5e9a 12bd b19a 56bc 165f 0e3c b6b0 d63c
000002a0: cb7b adbc 4bd9 c9bc e3f7 bc3d a266 ddbb
000002b0: 1ee8 203c 8cb3 8a3d 389c 0abe 850f 6abd
000002c0: 7c8e ca3c 1d8b 39bd 498e 0bbd 1dbd 5a3b
000002d0: fe6e 133d ca75 1cbc 2295 80bd 8b15 9d3c
000002e0: 761c 683b 1615 853d 8569 813d d934 bbbd
000002f0: 31aa 813b 0c62 a23c 2549 603d f6f6 5e3d
00000300: cebc a1bc 789b 24bd 19d7 92bc d696 bc3c
00000310: d2b2 bbbc 421c 693d 39f9 083d 7b67 4d3d
00000320: 18e5 653d 8557 e33c 9397 b33d 364d 9e3d
00000330: 6266 97bc 99dc 873c 66cb b2bd cfb0 ce3d
00000340: 72be 763c bbc4 1b3c 99c5 563c 51bd 613d
00000350: 7fd3 72bd 069a 9e3b cc24 a83d 467d bbbc
00000360: 5b28 8bbb 24d3 ca3c 0bab 593d bf13 913c
00000370: c898 0bbd d8c4 d43c 20a3 30bc 0ac1 b73c
00000380: 52f6 583d f3cc 9c3d e539 f73c d50d 323d
00000390: fbd0 643d e04b eabc 4de8 3e3d 2c36 063e
000003a0: e267 923d 61fa 0abd 023b 3cbd dc45 793b
000003b0: 9a03 1c3c f720 61bd 91e8 8b3c bac2 84bd
000003c0: 5623 173d 4253 003d b2ac 7ebc dffb e6bb
000003d0: eb66 eebc 33ef 013d 9a10 7fbd e2cd 20bd
000003e0: b9e1 63bc 44ec 6a3d abef 903c 5d41 ec3b
000003f0: 7a57 9c3c 9b5c 01bd 0f1f 133d b1d8 e7bc

fc1.bias f4 [50]
0.11563261 -0.04116968 -0.034537233 0.18115728 -0.0082513895 -0.025588585 0.59897393 0.6657054
-0.04577573 0.42284802 -0.02963248 0.017013714 0.013481791 -0.02714747 -0.019154543 -0.029246978
-0.054240137 -0.036164895 -0.008567844 -0.026053123 -0.030675203 -0.003648902 0.027077867 0.44153693
-0.013156759 0.46202058 -0.027151812 0.5433479 -0.00821063 0.24600624 0.35773745 -0.056209553
0.65310276 -0.052428655 0.34837577 0.5659774 0.5856892 -0.015805814 -0.058741435 0.45479724
-0.00021896159 -0.011669395 0.19385295 -0.055199493 -0.0016736912 -0.0006031359 -0.043043803 -0.051299606
0.24180822 0.26003113
00000000: cad0 ec3d 8aa1 28bd ea76 0dbd 4b81 393e
00000010: d630 07bc 279f d1bc 5b56 193f ab6b 2a3f
00000020: 557f 3bbd 897f d83e d1bf f2bc 5860 8b3c
00000030: bbe2 5c3c 5f64 debc fde9 9cbc 5c97 efbc
00000040: e82a 5ebd a421 14bd 2460 0cbc 5c6d d5bc
00000050: 904a fbbc 6b22 6fbb 67d2 dd3c 2111 e23e
00000060: 728f 57bc f68d ec3e 7a6d debc d918 0b3f
00000070: e185 06bc 0fe9 7b3e 5d29 b73e fd3b 66bd
00000080: be31 273f 6ebf 56bd 4f5e b23e e5e3 103f
00000090: baef 153f 327b 81bc dc9a 70bd 2fdb e83e
000000a0: 0e99 65b9 fd30 3fbc 6381 463e dd18 62bd
000000b0: c25f dbba c41b 1eba b34e 30bd 891f 52bd
000000c0: 939c 773e cd22 853e

fc2.weight f4 [10, 50]
0.27609903 -0.2839228 -0.092376865 0.1527096 -0.08285223 0.013965372 0.45323727 0.7327532
-0.31238696 0.27009535 -0.30433545 -0.088325724 -0.0044303252 -0.24337022 -0.3378037 -0.20017543
-0.20967747 -0.23288682 -0.23396896 -0.33571422 -0.22402118 -0.16776995 0.07670895 0.4153578
-0.26362452 0.43626362 -0.22382776 0.31721285 -0.09560111 0.28138223 0.26563832 -0.2755126
0.7718564 -0.3045537 0.29116666 0.48416245 0.47036916 -0.16366825 -0.23877002 0.39970663
-0.20975493 -0.24093646 0.13559477 -0.200523 -0.28879568 -0.14937402 -0.26104257 0.034929354
0.29189405 0.2856668 0.25167954 -0.362666 0.31137502 0.2354088 0.2379292 -0.2016516
-0.19014512 -0.15857323 -0.24713153 0.2818241 0.1879174 0.17116511 -0.17499788 -0.2415758
0.18620577 0.326858 0.23232193 -0.29562673 0.20867413 0.19776598 -0.021585796 0.32352778
-0.20147295 0.38573316 0.28385705 -0.21795025 -0.18508661 0.21700408 -0.19680029 -0.14732565
-0.33826864 -0.22954182 -0.12778568 -0.24741727 0.22480266 -0.13873734 0.41881442 0.28309545
-0.120293 -0.1699691 0.25074178 0.2629171 0.14535457 0.27145267 0.29039997 -0.27564192
-0.30785388 -0.33198568 0.3751136 -0.21092752 0.28202736 0.30416006 0.30108452 -0.51174706
-0.2810727 0.3326531 0.42841756 -0.16362695 0.2106134 0.23440664 0.12084324 0.23706539
0.27887517 0.29744527 -0.31309366 0.27008116 -0.2509195 -0.37567902 0.2719476 0.17052618
-0.11535463 0.2833648 -0.09455944 0.32972094 -0.40816408 -0.26863065 0.31143516 -0.24171564
-0.11872877 -0.23455909 -0.3280614 -0.27718917 -0.03314326 0.2529049 0.26262933 0.38341847
-0.2255912 -0.25826284 -0.05523622 -0.15337576 0.218161 -0.16456279 0.15768571 0.34077626
-0.4521055 -0.30524772 0.24339993 0.33007 -0.38670385 0.3000963 -0.06820634 -0.10801823
-0.21281113 0.22377571 -0.088900276 0.35461387 -0.16901217 -0.16461734 0.23506047 0.3038209
0.19201797 0.22322325 -0.180157 -0.12630256 0.2844859 -0.23305021 -0.3367705 0.24825948
0.2796425 0.26914942 0.28180468 0.26428124 -0.26287106 -0.069576114 0.30572215 0.33136737
0.4287104 0.24730761 0.37924224 -0.28930652 -0.34812853 -0.3182906 -0.10647298 -0.31449923
-0.346793 -0.09214651 -0.22006518 -0.269445 0.3095332 -0.29829562 -0.14488548 -0.27039358
-0.30812594 -0.18665846 -0.17594396 -0.21116139 0.3204692 -0.25146392 -0.22460671 -0.13832696
-0.13460384 -0.17493199 0.34439257 0.10448337 0.292701 -0.16726018 -0.29193944 -0.06221188
-0.2545538 -0.26761293 -0.20514472 -0.2646244 0.2935273 -0.3197653 0.23316224 0.24369253
-0.18298367 0.20602523 -0.26729283 -0.16623399 0.32967198 0.2486165 0.27310437 0.34043258
-0.054750912 -0.16140467 -0.1694317 0.25563678 0.33359224 -0.31807894 -0.10813375 0.2249822
-0.19480994 0.28937456 0.28039876 -0.26274893 0.3877813 0.32138887 0.2601001 -0.10670422
0.28267875 0.1973273 0.20499352 -0.14519186 -0.27497908 -0.14744702 0.24894875 0.2617863
-0.17046325 -0.13903259 -0.19419678 -0.23872548 -0.09383408 0.21727683 0.2937309 -0.18665968
00000000: da5c 8d3e 545e 91be 1530 bdbd e85f 1c3e
00000010: 6eae a9bd 04cf 643c b70e e83e b795 3b3f
00000020: 2ff1 9fbe f049 8a3e dbd1 9bbe 1ee4 b4bd
00000030: 432c 91bb 0b36 79be 9bf4 acbe cafa 4cbe
00000040: b1b5 56be e279 6ebe 8f95 6fbe bce2 abbe
00000050: cf65 65be e3cb 2bbe 9519 9d3d c7a9 d43e
00000060: cbf9 86be f25d df3e 1b33 65be b969 a23e
00000070: 84ca c3bd 5511 903e bf01 883e fd0f 8dbe
00000080: 6298 453f 76ee 9bbe cc13 953e 24e4 f73e
00000090: 3ad4 f03e a698 27be 2180 74be 59a6 cc3e
000000a0: ffc9 56be 0cb8 76be 5bd9 0a3e e755 4dbe
000000b0: 07dd 93be 81f5 18be 5fa7 85be 1512 0f3d
000000c0: 2373 953e eb42 923e 24dc 803e 5caf b9be
000000d0: 8c6c 9f3e 010f 713e b6a3 733e c27d 4ebe
000000e0: 67b5 42be 0561 22be 0c10 7dbe 404b 903e
000000f0: 6b6d 403e e845 2f3e a532 33be a65f 77be
00000100: baac 3e3e ef59 a73e cde5 6d3e 635c 97be
00000110: acae 553e 2a83 4a3e b2d4 b0bc 6fa5 a53e
00000120: ed4e 4ebe d17e c53e b655 913e 5a2e 5fbe
00000130: 5887 3dbe 5136 5e3e 0486 49be 89dc 16be
00000140: 8c31 adbe 030d 6bbe 40da 02be f45a 7dbe
00000150: ab32 663e 2911 0ebe d86e d63e e3f1 903e
00000160: 2d5c f6bd 610c 2ebe 3a61 803e 129d 863e
00000170: d4d7 143e d8fb 8a3e 4eaf 943e f020 8dbe
00000180: 069f 9dbe 07fa a9be e40e c03e 62fd 57be
00000190: e465 903e deba 9b3e c027 9a3e db01 03bf
000001a0: c3e8 8fbe 8251 aa3e 8c59 db3e d38d 27be
000001b0: 0aab 573e 4b08 703e a97c f73d 45c1 723e
000001c0: bac8 8e3e bf4a 983e d04d a0be 1448 8a3e
000001d0: 8578 80be 0059 c0be b73c 8b3e 6a9e 2e3e
000001e0: 0c3f ecbd 3115 913e 61a8 c1bd 2fd1 a83e
000001f0: e2fa d0be f589 89be 6e74 9f3e 4e84 77be
00000200: 1228 f3bd 4230 70be aaf7 a7be bdeb 8dbe
00000210: 3ac1 07bd c07c 813e 5a77 863e 6d4f c43e
00000220: 6101 67be 073b 84be 603f 62bd 890e 1dbe
00000230: 9965 5f3e 2683 28be 5d78 213e 3a7a ae3e
00000240: 5f7a e7be 6e49 9cbe d53d 793e effe a83e
00000250: 0cfe c5be 39a6 993e c4af 8bbd a938 ddbd
00000260: 29eb 59be 7625 653e 5911 b6bd f38f b53e
00000270: 8711 2dbe 7391 28be b1b3 703e 6a8e 9b3e
00000280: 5ca0 443e a394 643e 147b 38be 7555 01be
00000290: 23a8 913e b7a4 6ebe 2f6d acbe bc37 7e3e
000002a0: 4d2d 8f3e f4cd 893e b448 903e df4f 873e
000002b0: 0997 86be ec7d 8ebd 9d87 9c3e fca8 a93e
000002c0: ee7f db3e 353e 7d3e 0a2c c23e fc1f 94be
000002d0: e73d b2be fcf6 a2be 810e dabd 0b06 a1be
000002e0: da8e b1be 4fb7 bcbd c458 61be b2f4 89be
000002f0: 237b 9e3e 34ba 98be dc5c 14be 0771 8abe
00000300: afc2 9dbe 6523 3fbe a72a 34be b13a 58be
00000310: 8a14 a43e e1bf 80be 4dff 65be 95a5 0dbe
00000320: 97d5 09be 5f21 33be 3954 b03e 61fb d53d
00000330: e8dc 953e 4146 2bbe 1679 95be e2d1 7ebd
00000340: e054 82be 9004 89be 7511 52be d97c 87be
00000350: 3649 963e 47b8 a3be 15c2 6e3e 898a 793e
00000360: 1260 3bbe 47f8 523e 9bda 88be 3e39 2abe
00000370: c4ca a83e 5395 7e3e 56d4 8b3e 2e4d ae3e
00000380: 7e42 60bd 4447 25be 817f 2dbe d3e2 823e
00000390: 9acc aa3e 3edb a2be 3a75 ddbd bc61 663e
000003a0: 427c 47be e728 943e 6d90 8f3e 0787 86be
000003b0: 458b c63e 158d a43e d72b 853e be87 dabd
000003c0: 45bb 903e 2b10 4a3e d2e9 513e 2dad 14be
000003d0: 0fca 8cbe 5afc 16be 6cec 7e3e db08 863e
000003e0: eb8d 2ebe 8f5e 0ebe 85db 46be 7474 74be
000003f0: 152c c0bd d17d 5e3e e663 963e b723 3fbe

fc2.bias f4 [10]
1.7305197 -0.33111957 -0.4493086 0.053105205 -0.33345455 -0.13966621 -0.07467676 -0.2846393
-0.32007504 -0.09086881
00000000: ab81 dd3f 8188 a9be c70b e6be d884 593d
00000010: 8eba aabe a904 0fbe 21f0 98bd 3ebc 91be
00000020: e0e0 a3be 6d19 babd
