model.pth (torch, 90280 bytes, 8 tensors)

conv1.weight f4 [10, 1, 5, 5]
0	0x3f0bfdc7	0.5468411
1	0x3f0051ae	0.50124633
2	0x3edc9459	0.4308193
3	0x3ec01d64	0.37522423
4	0xbf1872e5	-0.59550315
5	0x3e4c1be1	0.1993251
6	0x3e8976fe	0.26848596
7	0x3ed0cd21	0.407815
8	0x3e172363	0.14759593
9	0xbf23911e	-0.63893306
10	0xbe2450a9	-0.16046394
11	0x3e9ea6d8	0.30986667
12	0x3ecf5d5d	0.40500918
13	0xbe9d5d41	-0.3073521
14	0xbf0a22c1	-0.5395928
15	0x3d39a392	0.04532201
16	0xbeb33914	-0.35004485
17	0xbda9dea2	-0.08294417
18	0xbe924898	-0.2857101
19	0xbe5d8ec0	-0.21636486
20	0x3d63bfeb	0.05560295
21	0xbe35a89a	-0.17740098
22	0xbed60161	-0.41797927
23	0x3d931d93	0.07183375
24	0x3d5bbf47	0.053649213
25	0xbc76cb27	-0.015063084
26	0x3e9f9014	0.3116461
27	0x3ed0bf99	0.40771177
28	0x3ed254e1	0.41080382
29	0x3eacb1a1	0.3372927
30	0x3e8e98ce	0.27850956
31	0x3eb568a3	0.35431394
32	0x3eadd735	0.33953252
33	0x3e6ca571	0.23109986
34	0x3e0125d6	0.1261209
35	0xbcfe8fc0	-0.031074405
36	0xbe0788a8	-0.13235724
37	0xbe91c57c	-0.2847098
38	0xbe608d07	-0.21928798
39	0xbe6093b1	-0.2193134
40	0x3d9a6869	0.07539446
41	0x3e80a30b	0.25124392
42	0x3e38c21e	0.180428
43	0x3e3cc87e	0.18435857
44	0xbd86232b	-0.065496765
45	0x3d8f9d51	0.070124276
46	0x3e9f24b5	0.31082693
47	0x3ebe095a	0.3711651
48	0x3ee72c15	0.4515082
49	0x3e206d04	0.15666586
50	0xbdbb4f36	-0.09145968
51	0x3e2f9733	0.17147522
52	0x3ecd778a	0.40130264
53	0x3e922951	0.28547147
54	0xbd21f58c	-0.039540812
55	0xbf09b64d	-0.53793794
56	0xbf0da2e1	-0.5532666
57	0xbee75cd3	-0.45188007
58	0xbed16a8f	-0.4090161
59	0xbdcadf0d	-0.09905825
60	0x3dfbfe07	0.12304311
61	0xbdbe9ab5	-0.09306852
62	0xbeb7b19a	-0.35877687
63	0xbf0ba1c7	-0.5454373
64	0xbeb10fd8	-0.345824
65	0x3f20bce7	0.6278824
66	0x3ea3d37d	0.3199729
67	0x3e5485e1	0.20754196
68	0x3e976f70	0.29577208
69	0xbec780da	-0.38965493
70	0x3f27f0b2	0.65601647
71	0x3f0bc006	0.5458988
72	0x3ec649be	0.38728136
73	0x3d721622	0.05910314
74	0xbe3bac64	-0.1832748
75	0xbc5f49ee	-0.013628466
76	0x3d430ea8	0.0476214
77	0xbc4940d8	-0.012283526
78	0x3e035168	0.12824023
79	0x3dc587b9	0.09645028
80	0x3e910692	0.28325325
81	0x3e22e74d	0.15908547
82	0xbe73c803	-0.23806767
83	0xbdb0f4e6	-0.08640461
84	0x3de58e9a	0.1120884
85	0x3ebcbcde	0.36862844
86	0x3ee52a09	0.44758633
87	0xbd002728	-0.031287342
88	0xbdf50c12	-0.11965193
89	0xbed37503	-0.4130021
90	0xbc8b646a	-0.017015655
91	0x3e532eab	0.20623271
92	0x3dea6676	0.11445324
93	0xbf29a3d9	-0.66265637
94	0xbec841bd	-0.39112654
95	0x3df273cf	0.11838495
96	0x3ea5a56d	0.32352772
97	0xbef01a9b	-0.46895298
98	0xbe92c78b	-0.28667864
99	0x3de8736a	0.113501385
100	0x3da64cef	0.08120143
101	0xbdbafa74	-0.091298014
102	0x3d57c1f6	0.05267521
103	0xbe06e782	-0.1317425
104	0x3e525924	0.20541817
105	0xbeba7e04	-0.36424267
106	0xbe777b3a	-0.24168101
107	0x3e24f710	0.16109872
108	0x3dfe39c3	0.12413361
109	0x3e904434	0.28177035
110	0xbed52153	-0.41626987
111	0x3e1fac04	0.15592963
112	0x3e40a4d3	0.18812875
113	0xbdc31e72	-0.09527291
114	0x3e26a598	0.16274107
115	0xbf101d46	-0.5629467
116	0x3d708118	0.058716863
117	0x3e936b46	0.2879278
118	0x3d32fb26	0.043696545
119	0xbd4ffb9e	-0.05077707
120	0xbf528010	-0.8222666
121	0x3e2ca946	0.16861448
122	0x3ed6793e	0.41889375
123	0x3e962f88	0.29333138
124	0xbddf4bad	-0.10903106
125	0x3e041843	0.1289988
126	0x3e7d28b2	0.24722555
127	0xbe1351bf	-0.14386652
128	0xbe94bf0b	-0.29052004
129	0x3c9c869d	0.019107157
130	0x3e93dfbd	0.28881636
131	0x3e62ac31	0.22135998
132	0xbf1512a9	-0.582316
133	0xbf088e0d	-0.5334175
134	0xbda0d7bc	-0.07853648
135	0x3df471a1	0.119357355
136	0xbdeaeda3	-0.11471107
137	0xbe9cd411	-0.30630544
138	0x3ea3512e	0.31897873
139	0x3e9356c8	0.28777146
140	0xbe242760	-0.16030645
141	0x3e6d55e2	0.23177293
142	0x3ec410d8	0.382941
143	0x3f00f9f0	0.50381374
144	0x3f044bf6	0.5167841
145	0xbd307885	-0.043083686
146	0x3f076d46	0.52901113
147	0x3f02cdd7	0.51095337
148	0x3f0baca7	0.5456032
149	0x3eccdc36	0.40011758
150	0xbea00b1c	-0.31258476
151	0xbd55c23c	-0.05218719
152	0xbe5e6c25	-0.21720941
153	0xbc44ec8c	-0.012019288
154	0x3e217257	0.15766273
155	0x3e09df94	0.13464195
156	0x3d0a34c5	0.03374173
157	0x3e7007f7	0.23440538
158	0x3d3815e1	0.04494274
159	0xbe894203	-0.26808175
160	0x3ec3266d	0.38115254
161	0xbd88ff7a	-0.06689353
162	0x3d72ff04	0.059325233
163	0xbe232d48	-0.15935242
164	0xbe41e889	-0.18936361
165	0xbd2efd2f	-0.042721923
166	0x3d2d5317	0.04231557
167	0x3e01a5b2	0.12660864
168	0xbd87c5e5	-0.06629542
169	0xbe7c2a58	-0.24625528
170	0x3d1bc431	0.0380289
171	0x3e8b7760	0.27239513
172	0x3d076bb8	0.033061713
173	0x3e7a119f	0.24420784
174	0xbeae0fa0	-0.33996296
175	0x3ecf74d1	0.4051881
176	0x3eb40a39	0.3516405
177	0x3ee361ee	0.44410652
178	0xbe253fc7	-0.1613761
179	0xbf338708	-0.70127916
180	0x3ecdea62	0.40217882
181	0x3efb1592	0.49039894
182	0x3ede3414	0.43399107
183	0x3cd503e2	0.026002828
184	0xbf35d68b	-0.7103049
185	0x3edae1f2	0.42750508
186	0x3ee678ad	0.45013943
187	0x3eff385d	0.4984769
188	0xbe479078	-0.19488704
189	0xbf561d37	-0.8363833
190	0xbc91b2f7	-0.017785532
191	0x3d0ac76b	0.033881586
192	0x3e3b9912	0.1832011
193	0xbee5f5f7	-0.4491422
194	0xbf149493	-0.58039206
195	0x3e260454	0.16212589
196	0x3ded38b5	0.11583082
197	0xbd78719c	-0.06065522
198	0xbdb8f55f	-0.09031176
199	0x3e321883	0.17392163
200	0xbe5dfc3e	-0.21678254
201	0x3e632beb	0.22184722
202	0xbce3e198	-0.027817532
203	0x3e259070	0.1616838
204	0xbdb16f1d	-0.08663771
205	0xbef78745	-0.4834539
206	0x3dff4d59	0.12465925
207	0x3e494eba	0.19658938
208	0x3d6f8470	0.05847591
209	0xbe15a4e7	-0.14613687
210	0xbf1c0e4e	-0.6095933
211	0x3ec3f1b9	0.38270357
212	0x3e46886f	0.19387983
213	0x3eb696c8	0.35661912
214	0x3e591a64	0.21201473
215	0xbf281db5	-0.6567033
216	0x3eab91f3	0.33509788
217	0x3e996744	0.29961598
218	0x3e38eb8a	0.18058601
219	0x3eb2377a	0.3480795
220	0xbf3751b3	-0.7160904
221	0xbe0d6cd9	-0.13811053
222	0xbe7316dc	-0.23739189
223	0xbe113b1f	-0.14182709
224	0x3df5ab8a	0.11995609
225	0xbde603b3	-0.11231174
226	0x3e15ea45	0.14640148
227	0x3e802037	0.25024578
228	0xbeb7976b	-0.3585771
229	0xbed1ea7b	-0.40999207
230	0xbe72f644	-0.23726755
231	0x3db5959f	0.088664286
232	0xbde4ed4e	-0.11178075
233	0xbef41070	-0.4766879
234	0xbea817e5	-0.3283073
235	0xbf14a811	-0.5806895
236	0x3d9b608a	0.07586773
237	0x3ed0188b	0.40643725
238	0x3f0faec6	0.5612606
239	0xbcc82d8b	-0.02443578
240	0xbf1af643	-0.60532016
241	0x3ed6b4cb	0.4193481
242	0x3f158560	0.5840664
243	0x3f2782ce	0.6543397
244	0xbc140f97	-0.00903692
245	0xbe393203	-0.18085484
246	0x3f04d6dd	0.51890355
247	0x3f164e36	0.5871309
248	0x3f12d818	0.5736098
249	0x3e7d473f	0.2473421

conv1.bias f4 [10]
0	0x3e26c2b2	0.16285208
1	0x3d0c9803	0.034324657
2	0x3eb66202	0.3562165
3	0x3e91e8cf	0.2849793
4	0x3e8f0746	0.27935237
5	0x3de2d527	0.11075812
6	0x3e404561	0.18776466
7	0x3dbfa232	0.09357108
8	0x3e8a4af1	0.270103
9	0x3ed883f8	0.42288184

conv2.weight f4 [20, 10, 5, 5]
0	0x3d8e4ef9	0.069486566
1	0x3dbfc5eb	0.09363922
2	0xbd63cde1	-0.055616263
3	0x3d6eab97	0.05826911
4	0x3cc8e659	0.0245239
5	0xbcf24077	-0.029571755
6	0xbde7ccf1	-0.11318386
7	0x3d9ed5b9	0.07755608
8	0x3e15664f	0.14589809
9	0xbc093324	-0.008374009
10	0xbe2919ef	-0.16513799
11	0xbdb89972	-0.09013642
12	0x3d2d35bc	0.042287573
13	0x3dd4a8e9	0.103837796
14	0x3be51afb	0.0069917417
15	0xbcf51786	-0.029918443
16	0x3dad4627	0.08460646
17	0xbd14e942	-0.036355264
18	0xbd7b7b15	-0.061396677
19	0xbbc77a65	-0.0060875886
20	0x3be0ae04	0.006856682
21	0xbb220f69	-0.0024728423
22	0x3ccafb0d	0.024777913
23	0x3d5beacf	0.053690728
24	0xbda02213	-0.07818999
25	0xbe22dd10	-0.15904641
26	0x3d5855c2	0.05281616
27	0x3c1974c9	0.009366223
28	0xbd3f1647	-0.046652105
29	0xbd231629	-0.039816055
30	0xbe09462c	-0.13405675
31	0xbc6ae80c	-0.014337551
32	0xbc9aff0d	-0.018920446
33	0x3d688f4c	0.056777284
34	0x3d99a029	0.07501251
35	0xbddf9bc0	-0.10918379
36	0x3c8ad87c	0.01694893
37	0x3d8739aa	0.066027954
38	0xbbb81014	-0.005617151
39	0xbcd1c7b8	-0.025607929
40	0xbd9fae1a	-0.07796879
41	0xbc9bfe50	-0.019042164
42	0xbd5e5ef1	-0.054289762
43	0x3b2f767a	0.0026773498
44	0x3e4006a6	0.18752536
45	0xbb32a3e8	-0.002725834
46	0x3d176d28	0.036969334
47	0xbcad67ad	-0.0211676
48	0xbd8be822	-0.06831385
49	0xbda7b675	-0.08189098
50	0xbd808b83	-0.0627661
51	0xbdf9b299	-0.12192268
52	0xbd054093	-0.032532286
53	0x3d9fab32	0.07796325
54	0xbd40f26b	-0.047106188
55	0x3c8dcb4a	0.01730885
56	0x3b535392	0.0032245857
57	0x3a6b6482	0.00089795154
58	0xbd7d5935	-0.061852653
59	0x3dbb30b8	0.09140152
60	0xbcccec27	-0.02501495
61	0x3e3b6dac	0.18303555
62	0x3e1f9fc5	0.15588291
63	0x3dc14d64	0.09438589
64	0x3d893c9a	0.06701012
65	0xbd3f4585	-0.04669716
66	0x3cf88730	0.0303379
67	0x3dc2f410	0.095192075
68	0x3d3f7f18	0.046752065
69	0x3ea15e9b	0.3151749
70	0xbce4a392	-0.027910028
71	0x3dc262fe	0.094915375
72	0xbb9b229e	-0.0047343513
73	0xbde6db89	-0.11272342
74	0x3e038ef2	0.12847498
75	0x3def4287	0.11682611
76	0xbd6316b6	-0.05544158
77	0xbdd9b63e	-0.10630463
78	0x3cb05894	0.021526612
79	0xbc591e99	-0.013251924
80	0xbd058ec6	-0.032606862
81	0xbcb78f89	-0.02240731
82	0x3ddd9981	0.10820294
83	0x3e1fc620	0.15602922
84	0x3cf00bce	0.029302504
85	0x3d369e21	0.044584397
86	0x3d0eb458	0.034839958
87	0x3ca39e7a	0.019973028
88	0x3d5fd9a9	0.054650936
89	0x3d5f266d	0.054480005
90	0xbd2877d1	-0.04112989
91	0x3db7a549	0.089670725
92	0x3cca1244	0.024666913
93	0x3dc294f1	0.095010646
94	0xbcca6373	-0.024705624
95	0x3cae5399	0.021280097
96	0xbd12a8ce	-0.035805516
97	0xbcf8dd47	-0.03037895
98	0xbdd5f0f3	-0.10446348
99	0xb97600c7	-0.00023460678
100	0xbd7e03a1	-0.06201518
101	0x3e66d139	0.2254075
102	0x3a36dcf9	0.00069756765
103	0x3cc0a3c2	0.023515586
104	0x3bee4630	0.0072715506
105	0xbbbbb665	-0.00572853
106	0x3e2e8653	0.17043428
107	0xbd123e06	-0.03570368
108	0x3d203f8f	0.039123114
109	0xbd0ca7d0	-0.034339726
110	0x3d5b9c9b	0.053616147
111	0x3c899d74	0.016798712
112	0xbcfd8060	-0.030945003
113	0x3d8aedca	0.06783636
114	0xbda918cf	-0.08256685
115	0xbd2a6f79	-0.041610215
116	0x3b68d2f7	0.0035526135
117	0xbd53567c	-0.05159615
118	0x3c451cf6	0.012030831
119	0xbd973e63	-0.07384946
120	0xbbb292d8	-0.005449634
121	0x3c7b1f1b	0.01532724
122	0xbcadc9aa	-0.021214325
123	0x3cabce0b	0.020972272
124	0xbbbd4295	-0.0057757595
125	0xbe0eef05	-0.13958366
126	0x3c34c03d	0.011032161
127	0x3d7d20af	0.061798748
128	0x3cc45dec	0.023970567
129	0xbd6dfb0a	-0.058100738
130	0xbcae39b7	-0.021267755
131	0xbdfdc8ff	-0.123918526
132	0xbd533891	-0.051567618
133	0xbdf1b4f6	-0.11802094
134	0x3dc94365	0.098273076
135	0x3e0c246d	0.1368577
136	0x3bd6851e	0.0065466305
137	0xbe03b632	-0.12862471
138	0xbd94915e	-0.07254289
139	0xbddc4a4f	-0.10756361
140	0x3ccbba96	0.024869245
141	0x3d518fa0	0.051162362
142	0x3d2e32a2	0.042528756
143	0x3cb29c09	0.021802919
144	0x3b6caf21	0.0036115127
145	0x3c153eaa	0.009109179
146	0x3d0b9fb8	0.034087867
147	0x3dbad803	0.09123232
148	0x3e336cb1	0.17521931
149	0x3dd3bdb5	0.10338918
150	0x3c3a6611	0.011376874
151	0xbd9e9ce5	-0.07744769
152	0xba34fd54	-0.0006904204
153	0xbd422202	-0.047395714
154	0xbd6c3a13	-0.05767257
155	0xbd74f7f6	-0.059806786
156	0xbd698d70	-0.05701965
157	0x3b798e08	0.0038079042
158	0xbd30d9dd	-0.04317652
159	0x3d61cd7d	0.05512761
160	0x3c26b9f9	0.010176175
161	0x3bc0f6c7	0.005888793
162	0x3da8e9e6	0.082477376
163	0xbaeaf483	-0.0017925653
164	0xbce23e0e	-0.02761748
165	0x3d6f2f06	0.058394454
166	0x3d9df882	0.07713415
167	0xbc4d64e2	-0.012536259
168	0x3dbfb979	0.09361548
169	0xbcfaa88b	-0.030597946
170	0x3c3199bc	0.010839876
171	0xbd1d763c	-0.038442835
172	0xbc24571d	-0.010030535
173	0xbc8137d5	-0.015773693
174	0x3cb7b864	0.022426791
175	0x3d2a7a83	0.041620743
176	0xbcf18adf	-0.029485164
177	0xbd11580c	-0.03548436
178	0xbb8ff736	-0.0043934835
179	0x3d979dd8	0.07403153
180	0xbdab2ba7	-0.083579354
181	0xbded2dc3	-0.11580994
182	0x3d3ae485	0.04562809
183	0x3dcdad9b	0.10042878
184	0x3b918b3a	0.004441646
185	0xbe1c2d70	-0.15251708
186	0xbe10d8c9	-0.14145197
187	0x3d786de7	0.060651686
188	0x3ce9835f	0.028505025
189	0xbd828865	-0.063736714
190	0xbd692e42	-0.05692888
191	0x3d91f367	0.071265034
192	0x3d982e9b	0.07430764
193	0x3c21ce7c	0.00987589
194	0xbdff2ecf	-0.124601
195	0xbdfbd2e8	-0.122960865
196	0x3ceef4b3	0.029169416
197	0xbd5119d8	-0.051050037
198	0xbbce1abe	-0.006289809
199	0xbccda14a	-0.025101323
200	0xbd701e9b	-0.058622938
201	0x3e151da7	0.14562093
202	0xbc43d912	-0.011953609
203	0x3dd0b6ed	0.1019114
204	0x3d22c973	0.0397429
205	0xbca63fae	-0.020294037
206	0x3e641ebb	0.22277348
207	0x3d158177	0.03650042
208	0xbc867888	-0.016414896
209	0xbd3ae8cc	-0.04563217
210	0xbd85853e	-0.065195546
211	0x3dde9a51	0.10869277
212	0xbd6671ff	-0.05626106
213	0x3d40839f	0.047000524
214	0x3df7453c	0.12073752
215	0xbd265d77	-0.04061648
216	0x3e051054	0.1299451
217	0xbd805113	-0.06265464
218	0xbc69bff6	-0.014266958
219	0xbe24da68	-0.1609894
220	0xbd148203	-0.0362568
221	0x3dd83a03	0.1055794
222	0xbb9f8557	-0.0048681903
223	0x3d702070	0.058624685
224	0x3b967bd5	0.0045923986
225	0xbe9afe1b	-0.30271992
226	0x3e8200d2	0.2539125
227	0xbaf6ff1b	-0.0018844338
228	0x3d6d3baf	0.057918247
229	0xbe1f3bf1	-0.1555021
230	0xbe12177f	-0.14266776
231	0x3ddbb1b1	0.10727251
232	0xbce271de	-0.027642187
233	0xbdba1d6f	-0.09087645
234	0x3d735b16	0.05941304
235	0x3d41f601	0.04735375
236	0x3d501293	0.050798964
237	0xbcc52545	-0.024065623
238	0xbd3a48dc	-0.04547964
239	0xbd1b53cf	-0.037921723
240	0xbe020f8e	-0.12701246
241	0x3e07ebb1	0.13273503
242	0x3c0116b5	0.007878949
243	0x3e296bbf	0.16545008
244	0xbdb2f92b	-0.08738931
245	0xbd8d596f	-0.06901824
246	0x3e45d231	0.19318463
247	0x3c138097	0.009002826
248	0x3e209849	0.15683092
249	0x3def33f8	0.11679834
250	0x3c366f75	0.011134972
251	0xbd431768	-0.047629744
252	0xbd8c13c7	-0.0683971
253	0xbc83c887	-0.01608683
254	0x3d4a1816	0.049339376
255	0xbcd7ff00	-0.02636671

conv2.bias f4 [20]
0	0x3d7ac9ee	0.06122773
1	0xbd8063a0	-0.06269002
2	0x3d511768	0.051047713
3	0xbd06f8de	-0.032952182
4	0xbd2eacd0	-0.042645276
5	0xbd225da8	-0.0396401
6	0x3cc6aba8	0.024251774
7	0xbc697396	-0.014248749
8	0xbcd7fb76	-0.026365023
9	0x3caa70ac	0.02080568
10	0x3cee409c	0.029083543
11	0x3b584a50	0.0033003278
12	0xbcee13e6	-0.029062223
13	0x3cf5b1e1	0.029992046
14	0x3d3f58af	0.046715435
15	0x3d1da651	0.03848869
16	0x3c872b5f	0.016500173
17	0x3c4d2fa5	0.012523566
18	0x3d2c41ef	0.042055067
19	0xbd66ab13	-0.056315493

fc1.weight f4 [50, 320]
0	0x3a95ed84	0.0011438583
1	0xbd67cc5b	-0.056591373
2	0xbc9d2ddc	-0.019186907
3	0xbc973be9	-0.018461185
4	0xbafaa3a0	-0.001912225
5	0xbcc5f00f	-0.02416232
6	0x3cd0563c	0.025431745
7	0x3d407506	0.046986602
8	0xbd3952ec	-0.045245096
9	0xbce11244	-0.02747453
10	0xbda10369	-0.078619786
11	0x3cfd99bf	0.0309571
12	0xba95d47d	-0.0011431124
13	0x39c1d685	0.00036971658
14	0x3cac22a3	0.02101261
15	0xbbe1a661	-0.006886289
16	0xbc294ea2	-0.010333689
17	0x3c9169ae	0.017750587
18	0x3d405412	0.046955176
19	0xbc1e3312	-0.009655731
20	0xbc90dac6	-0.017682444
21	0xbd55469b	-0.052069288
22	0xbc8f2c12	-0.017477069
23	0x3c03e864	0.008051012
24	0x3d46de37	0.048551764
25	0x3d352f37	0.04423448
26	0xbc9aa7b6	-0.018878799
27	0x3bc21365	0.005922722
28	0x3afc0fc1	0.0019230769
29	0xbcde4987	-0.02713467
30	0xbc5bc959	-0.013414704
31	0x3c1d3000	0.009593964
32	0x3c1b32f3	0.009472596
33	0x3d9f1738	0.077681005
34	0x3daeb072	0.08529748
35	0x3d926650	0.07148421
36	0x3cedcf83	0.029029613
37	0xbd3f5f3d	-0.046721686
38	0x3da8e586	0.08246903
39	0x3dc5a6dd	0.09650967
40	0xbc9f5e82	-0.019454245
41	0xbd107d9e	-0.035276048
42	0xbdacbd42	-0.084345356
43	0xbd6364bc	-0.05551599
44	0x3d8fb005	0.07015995
45	0x3ccd7e06	0.025084507
46	0xbd84adeb	-0.06478485
47	0x3bb0452e	0.0053793406
48	0xbcfc6ec3	-0.030814534
49	0x3d494b79	0.049144242
50	0x3cf347e9	0.029697375
51	0x3c346c39	0.01101213
52	0x3cdc80cd	0.026916886
53	0xbb86c68e	-0.004113025
54	0xbd260757	-0.040534344
55	0x3cc6da3d	0.024273986
56	0x3c71823e	0.014740525
57	0xbd9f94f1	-0.0779208
58	0x3d594afd	0.05305003
59	0xbd52d6a7	-0.05147424
60	0x3cab0eb7	0.02088104
61	0x3d578d2b	0.052624863
62	0xbc780ccd	-0.015139771
63	0xbd87484d	-0.06605587
64	0xbce5461a	-0.027987529
65	0xbd5786ed	-0.05261891
66	0x3c623b5f	0.0138081005
67	0xbd059895	-0.032616217
68	0xbd8a5a48	-0.06755501
69	0x3ca57b62	0.020200435
70	0x3d919644	0.07108739
71	0xbd1f1233	-0.038835716
72	0xbd482e78	-0.04887244
73	0x3d0aaa51	0.033853833
74	0xbd1fd293	-0.03901918
75	0x3c7844e3	0.015153143
76	0x3ba6031a	0.0050662877
77	0x3cc451be	0.023964759
78	0xbe07870d	-0.13235112
79	0x3b2c02fb	0.0026246894
80	0xbd216e26	-0.039411686
81	0xbb160940	-0.0022893697
82	0xbd343d58	-0.044003814
83	0xbd505ccf	-0.05086976
84	0xbc0e6044	-0.008689944
85	0xbc90fbc0	-0.017698169
86	0xbd1bfca4	-0.038082734
87	0xbc3c513c	-0.011493977
88	0x3d635484	0.055500522
89	0xbd35ce5f	-0.044386264
90	0xbd181d34	-0.037137225
91	0xbd0623ec	-0.0327491
92	0xbce71c67	-0.028211785
93	0xbd2c21a2	-0.042024262
94	0x3d30658c	0.043065593
95	0xbd4de0f0	-0.050263345
96	0xbc4f48e2	-0.012651654
97	0xbca0f246	-0.019646775
98	0xbb81b75b	-0.0039586253
99	0x3d89fe8f	0.06738006
100	0x3cb9bed9	0.022674011
101	0x3aaf0cc4	0.0013355245
102	0x3d244d6d	0.0401129
103	0x3cd72e6f	0.026267258
104	0xbc8d144b	-0.01722159
105	0xbcf51cad	-0.0299209
106	0xbd1983a7	-0.03747907
107	0x3c9832d3	0.018578922
108	0xba1466b5	-0.00056610565
109	0xbd3e8d33	-0.046521377
110	0x3d389426	0.04506316
111	0xbc08e87a	-0.008356208
112	0x3d3d97a9	0.046287213
113	0x3d3a24cb	0.045445245
114	0x3d6d7f12	0.05798251
115	0xbc805855	-0.01566712
116	0xbd89c48a	-0.0672694
117	0x3af9036f	0.0018998216
118	0xbd054578	-0.032536954
119	0xbca054b9	-0.019571649
120	0xbd166154	-0.036713913
121	0x3c838d65	0.016058633
122	0x3dbd8a43	0.09254887
123	0xbd098b74	-0.03358026
124	0xbd386d96	-0.045026384
125	0x3c83935f	0.016061483
126	0xbdd80059	-0.10546941
127	0x3cd228d9	0.025654243
128	0xbc7f652e	-0.015588088
129	0xbbf9ffd6	-0.007629375
130	0xbc9448ba	-0.018101085
131	0xbd45840b	-0.04822163
132	0x3ce36d73	0.02776215
133	0x3c48b2df	0.012249677
134	0xbd424d71	-0.047437135
135	0xbcba1596	-0.022715371
136	0xbd49c5f0	-0.049261034
137	0xbd24a479	-0.040195916
138	0x3c947c57	0.018125696
139	0x3d61f7aa	0.05516783
140	0x3ceb51ec	0.028725587
141	0x3c923b55	0.017850557
142	0x3d2f98cf	0.04287034
143	0xbd20f00a	-0.03929142
144	0x3d60bd21	0.054867867
145	0xbbb363cc	-0.005474543
146	0xbcff797c	-0.031185858
147	0x3d800468	0.062508404
148	0x3d3e1a0f	0.04641157
149	0xbc282ba6	-0.010264313
150	0x3cd2a784	0.025714643
151	0x3d4ed318	0.050494283
152	0xbd10f07f	-0.035385605
153	0xbd7bf63e	-0.06151413
154	0x3cec84ed	0.028871978
155	0xbcf1d122	-0.029518668
156	0x3cd8a0ab	0.0264438
157	0x3c38aa31	0.011271046
158	0xbd4f7784	-0.05065109
159	0x3d3fb099	0.046799276
160	0x3c118505	0.008881812
161	0x3d3512ad	0.044207264
162	0xbd2dd6c7	-0.042441156
163	0x3d2d0f18	0.042250723
164	0xbd129a51	-0.0357917
165	0xbc56a9a2	-0.013101967
166	0x3c0e4c22	0.008685144
167	0x3cd6b851	0.026210936
168	0xbcad7a85	-0.021176586
169	0xbcca0334	-0.02465973
170	0x3dbcedeb	0.09225067
171	0xbbdd998f	-0.0067626904
172	0x3c20e6bb	0.009820635
173	0x3d8a9c4b	0.06768092
174	0xbe0a95cf	-0.1353371
175	0xbd6a04b5	-0.057133395
176	0x3cca7888	0.024715677
177	0xbd3986f1	-0.045294706
178	0xbd0b8f16	-0.034072004
179	0x3b5bd326	0.0033542602
180	0x3d135ab9	0.03597519
181	0xbc1c3311	-0.00953366
182	0xbd809a58	-0.06279439
183	0x3c9d3c04	0.019193657
184	0x3b67ad81	0.003535122
185	0x3d851206	0.06497578
186	0x3d816773	0.063185595
187	0xbdbb32a6	-0.0914052
188	0x3b81583a	0.003947285
189	0x3ca2601d	0.019821221
190	0x3d604513	0.054753374
191	0x3d5ef612	0.05443389
192	0xbca1bb12	-0.019742522
193	0xbd249610	-0.040182173
194	0xbc92db23	-0.017926758
195	0x3cbc91fb	0.023018828
196	0xbcbbb0dd	-0.022911483
197	0x3d691ae3	0.056910407
198	0x3d08f478	0.03343627
199	0x3d4d699b	0.05014954
200	0x3d65e39f	0.05612528
201	0x3ce3755d	0.027765924
202	0x3db38410	0.08765423
203	0x3d9e4c79	0.0772943
204	0xbc9758d1	-0.018474968
205	0x3c87edfc	0.016592972
206	0xbdb2cd83	-0.087306045
207	0x3dceade3	0.1009176
208	0x3c77470d	0.015092623
209	0x3c1c3ef1	0.009536491
210	0x3c572500	0.01313138
211	0x3d61d9ab	0.055139225
212	0xbd72a510	-0.059239447
213	0x3ba07cf7	0.0048977095
214	0x3da82270	0.082096934
215	0xbcbb64dc	-0.022875242
216	0xbb8a23cf	-0.0042156945
217	0x3ccba59d	0.024859244
218	0x3d599bbf	0.053127047
219	0x3c911abc	0.017712943
220	0xbd0b6998	-0.03403625
221	0x3cd54ca5	0.026037524
222	0xbc304696	-0.0107590165
223	0x3cb7d3f9	0.022439944
224	0x3d58e92f	0.052956756
225	0x3d9cc6f2	0.07655133
226	0x3cf71680	0.030162096
227	0x3d3200f3	0.043457936
228	0x3d64c13c	0.055848345
229	0xbcea6959	-0.028614687
230	0x3d3ec592	0.046575136
231	0x3e0631ef	0.13104986
232	0x3d9261ee	0.07147585
233	0xbd0b0ae6	-0.03394594
234	0xbd3c66de	-0.04599654
235	0x3b7833d4	0.003787269
236	0x3c1bc48c	0.00950731
237	0xbd6143e4	-0.054996386
238	0x3c8b817d	0.017029518
239	0xbd84ca4b	-0.06483897
240	0x3d171e6d	0.03689425
241	0x3d00483f	0.0313189
242	0xbc7ee857	-0.015558324
243	0xbbe7386a	-0.0070562856
244	0xbcee6ab1	-0.029103609
245	0x3d01e08a	0.031708278
246	0xbd7f1924	-0.062279835
247	0xbd20e0ff	-0.039277073
248	0xbc63f10a	-0.013912449
249	0x3d6ad388	0.05733064
250	0x3c90db97	0.017682834
251	0x3bebf07e	0.0072002998
252	0x3c9c4eb5	0.0190805
253	0xbd015eed	-0.03158467
254	0x3d131835	0.035911757
255	0xbce7e090	-0.028305322

fc1.bias f4 [50]
0	0x3decb269	0.115574665
1	0xbd288f1c	-0.041152105
2	0xbd0d74f6	-0.03453537
3	0x3e398364	0.18116528
4	0xbc074016	-0.008255025
5	0xbcd1dfac	-0.02561935
6	0x3f19512d	0.5988949
7	0x3f2a65eb	0.66561764
8	0xbd3b6c87	-0.045757797
9	0x3ed877b2	0.4227882
10	0xbcf2fcf4	-0.029661633
11	0x3c8b88de	0.017033037
12	0x3c5d1a5c	0.013495054
13	0xbcde56d5	-0.027141014
14	0xbc9cf00a	-0.019157428
15	0xbcef9d40	-0.029249787
16	0xbd5e46e2	-0.054266818
17	0xbd1439ed	-0.036188055
18	0xbc0c6891	-0.008569852
19	0xbcd5dbef	-0.02610585
20	0xbcfb81ed	-0.030701602
21	0xbb6ea347	-0.003641324
22	0x3cddc606	0.027071964
23	0x3ee20784	0.4414636
24	0xbc57867e	-0.013154624
25	0x3eec7ff6	0.46191376
26	0xbcdeb2c3	-0.02718485
27	0x3f0b154b	0.54329365
28	0xbc073316	-0.008251926
29	0x3e7bd55d	0.2459311
30	0x3eb727dc	0.35772598
31	0xbd663177	-0.056199517
32	0x3f272b3b	0.6530034
33	0xbd56dabd	-0.0524547
34	0x3eb25712	0.34832054
35	0x3f10e043	0.56592196
36	0x3f15eb58	0.5856223
37	0xbc8176da	-0.015803743
38	0xbd70a2bd	-0.05874895
39	0x3ee8d2cf	0.45473334
40	0xb9687b79	-0.00022171241
41	0xbc3f0277	-0.0116583025
42	0x3e467c6b	0.19383399
43	0xbd6218d8	-0.055199474
44	0xbadbce2b	-0.0016769817
45	0xba239a20	-0.0006240923
46	0xbd305552	-0.043050118
47	0xbd52298f	-0.051309165
48	0x3e779ca8	0.24180853
49	0x3e851d64	0.25998986

fc2.weight f4 [10, 50]
0	0x3e8d60c9	0.27612904
1	0xbe915d6f	-0.28391597
2	0xbdbd2d69	-0.09237177
3	0x3e1c6545	0.15273006
4	0xbda9ac2c	-0.08284792
5	0x3c646e29	0.01394228
6	0x3ee7e855	0.45294443
7	0x3f3b90e3	0.73267955
8	0xbe9ff12a	-0.3123868
9	0x3e8a2a7e	0.26985544
10	0xbe9bd11a	-0.3043297
11	0xbdb4e232	-0.08832206
12	0xbb9081c4	-0.0044100005
13	0xbe793602	-0.24337009
14	0xbeacf4b3	-0.3378044
15	0xbe4cf74c	-0.20016211
16	0xbe56b585	-0.20967682
17	0xbe6e793d	-0.23288436
18	0xbe6f93e0	-0.23396254
19	0xbeabdb27	-0.33565637
20	0xbe655c67	-0.2239853
21	0xbe2bcc6d	-0.16777201
22	0x3d9cf214	0.0766336
23	0x3ed480c3	0.41504487
24	0xbe86f7ef	-0.26361033
25	0x3edf81b1	0.43653634
26	0xbe653414	-0.22383147
27	0x3ea24f23	0.31701002
28	0xbdc3ca28	-0.095600426
29	0x3e90006c	0.28125322
30	0x3e879868	0.26483464
31	0xbe8d0fd8	-0.2755115
32	0x3f459305	0.7717746
33	0xbe9bebee	-0.30453438
34	0x3e952d8a	0.29136306
35	0x3ef7bc2e	0.48385757
36	0x3ef0d479	0.47037104
37	0xbe27946c	-0.16365212
38	0xbe74801b	-0.23876993
39	0x3ecc94b3	0.39957199
40	0xbe56c9d6	-0.20975432
41	0xbe76b700	-0.24093246
42	0x3e0a81e5	0.13526113
43	0xbe4d558e	-0.20052168
44	0xbe93dcec	-0.28879488
45	0xbe18f4fd	-0.14937206
46	0xbe859942	-0.2609349
47	0x3d0e8241	0.03479219
48	0x3e95ac76	0.2923314
49	0x3e9231e1	0.2855368
50	0x3e80f799	0.25188902
51	0xbeb9af3a	-0.362665
52	0x3e9ec05a	0.31006128
53	0x3e7417f5	0.23837264
54	0x3e74a89a	0.23892441
55	0xbe4e6697	-0.20156322
56	0xbe42aac8	-0.1901046
57	0xbe225eae	-0.1585643
58	0xbe7d0e6b	-0.24712531
59	0x3e904f65	0.28185573
60	0x3e42332d	0.18964835
61	0x3e2f67a6	0.17129382
62	0xbe332a58	-0.17496622
63	0xbe775e96	-0.24157175
64	0x3e404bf0	0.18778968
65	0x3ea7e0ad	0.32788602
66	0x3e6ef588	0.2333585
67	0xbe97565a	-0.2955807
68	0x3e5542c0	0.20826244
69	0x3e4a74b1	0.19771077
70	0xbcb08099	-0.021545695
71	0x3ea6622c	0.32496774
72	0xbe4e45f3	-0.20143871
73	0x3ec5b062	0.38611132
74	0x3e919e5e	0.28441137
75	0xbe5f287b	-0.21792786
76	0xbe3d862e	-0.18508217
77	0x3e5ef6c5	0.21773823
78	0xbe49823f	-0.19678591
79	0xbe16d7a6	-0.14730701
80	0xbead3023	-0.33825788
81	0xbe6b06e0	-0.22951841
82	0xbe02d7dd	-0.12777658
83	0xbe7d56d4	-0.24740154
84	0x3e66bce5	0.22532995
85	0xbe0e0abb	-0.13871281
86	0x3ed6bc5d	0.41940585
87	0x3e926d2c	0.28598917
88	0xbdf6439a	-0.12024613
89	0xbe2e0a4f	-0.1699612
90	0x3e8004a0	0.2500353
91	0x3e8642d3	0.26222858
92	0x3e14242a	0.1446692
93	0x3e8ac0ca	0.2710021
94	0x3e958f0a	0.29210693
95	0xbe8d1ed1	-0.27562574
96	0xbe9d9e97	-0.30785057
97	0xbea9f016	-0.33190984
98	0x3ec0ead5	0.37679163
99	0xbe57f96f	-0.21091245
100	0x3e908c0e	0.28231853
101	0x3e9b4798	0.3032806
102	0x3e9a87a1	0.30181602
103	0xbf03009e	-0.51172817
104	0xbe8fe749	-0.28106144
105	0x3ea9eaed	0.33187047
106	0x3edaf490	0.4276471
107	0xbe278c2e	-0.16362068
108	0x3e579055	0.21051152
109	0x3e6fc005	0.23413093
110	0x3df696ae	0.120404586
111	0x3e70a94a	0.23502079
112	0x3e8e0112	0.27735192
113	0x3e987ae0	0.29781246
114	0xbea04d51	-0.31308988
115	0x3e898f71	0.2686725
116	0xbe807724	-0.25090897
117	0xbec056ef	-0.37566325
118	0x3e89d32d	0.26918927
119	0x3e2ec731	0.17068173
120	0xbdec3b2e	-0.11534725
121	0x3e907beb	0.28219542
122	0xbdc19b91	-0.094535
123	0x3ea9268e	0.33037227
124	0xbed0fa58	-0.40815997
125	0xbe8987b0	-0.26861334
126	0x3e9f4962	0.31110674
127	0xbe777ed6	-0.24169478
128	0xbdf31b43	-0.11870434
129	0xbe702571	-0.23451783
130	0xbea7f696	-0.32805318
131	0xbe8debb2	-0.27718884
132	0xbd07b73c	-0.03313373
133	0x3e812ea3	0.25230893
134	0x3e868c21	0.26278785
135	0x3ec3df6d	0.38256398
136	0xbe66fe54	-0.22557956
137	0xbe8439b6	-0.2582528
138	0xbd622fe0	-0.05522144
139	0xbe1d0a9c	-0.15336078
140	0x3e603c7b	0.21898071
141	0xbe287f42	-0.16454795
142	0x3e21afb7	0.15789686
143	0x3eacc9f2	0.33747822
144	0xbee779de	-0.45210165
145	0xbe9c4263	-0.305194
146	0x3e787c5e	0.24266192
147	0x3ea909c6	0.3301527
148	0xbec601bf	-0.38673207
149	0x3e991b36	0.29903573
150	0xbd8ba504	-0.068185836
151	0xbddd34ed	-0.108011104
152	0xbe59eb0a	-0.21281067
153	0x3e62e91c	0.22159237
154	0xbdb5ce37	-0.08877223
155	0x3eb534e6	0.3539192
156	0xbe2d0df9	-0.16899861
157	0xbe288f88	-0.16461003
158	0x3e6f5fe6	0.23376426
159	0x3e9ad77b	0.30242524
160	0x3e3e2bb8	0.18571365
161	0x3e626e3c	0.22112364
162	0xbe387a69	-0.18015446
163	0xbe015484	-0.12629896
164	0x3e932188	0.2873652
165	0xbe6ea35c	-0.23304504
166	0xbeac6849	-0.33673313
167	0x3e7aa457	0.24476753
168	0x3e8ea3b0	0.2785926
169	0x3e8950f9	0.2681959
170	0x3e903431	0.2816482
171	0x3e871225	0.2638103
172	0xbe8695e1	-0.26286224
173	0xbd8e6625	-0.06953076
174	0x3e9b8d0a	0.30381042
175	0x3eaa37e9	0.3324578
176	0x3edc4968	0.43024755
177	0x3e7d921f	0.24762772
178	0x3ec18257	0.37794754
179	0xbe941e99	-0.28929594
180	0xbeb23c84	-0.34811795
181	0xbea2e89d	-0.31818095
182	0xbdda09ea	-0.10646422
183	0xbea0f62c	-0.31437814
184	0xbeb18df1	-0.34678605
185	0xbdbcb624	-0.09214428
186	0xbe6155dc	-0.22005409
187	0xbe89f26c	-0.26942766
188	0x3e9dbf04	0.30809796
189	0xbe98b99c	-0.2982911
190	0xbe145a87	-0.14487658
191	0xbe8a70d4	-0.27039206
192	0xbe9dc20e	-0.30812114
193	0xbe3f2275	-0.18665488
194	0xbe34237f	-0.17591666
195	0xbe582ef2	-0.21111658
196	0x3ea3d3c6	0.31997508
197	0xbe80bb09	-0.25142696
198	0xbe6600c2	-0.22461227
199	0xbe0da1ce	-0.13831255
200	0xbe09d1aa	-0.13458887
201	0xbe33201f	-0.17492722
202	0x3eb09e1a	0.34495622
203	0x3dd4528a	0.103673056
204	0x3e9512de	0.29115957
205	0xbe2b4586	-0.1672574
206	0xbe957807	-0.29193136
207	0xbd7ecb23	-0.062205445
208	0xbe82544b	-0.25454935
209	0xbe8902fc	-0.2676009
210	0xbe51f9b9	-0.20505418
211	0xbe877899	-0.26459196
212	0x3e95b7ea	0.29241878
213	0xbea3b828	-0.31976438
214	0x3e6f4e63	0.23369746
215	0x3e78a9ba	0.24283496
216	0xbe3b619b	-0.18298952
217	0x3e53b76d	0.2067544
218	0xbe88d91a	-0.26728135
219	0xbe2a2e58	-0.16619241
220	0x3ea9019c	0.3300904
221	0x3e7de25d	0.24793382
222	0x3e8b8ef9	0.27257517
223	0x3eaddc2b	0.33957037
224	0xbd6068e7	-0.054787543
225	0xbe254295	-0.1613868
226	0xbe2d7e03	-0.16942601
227	0x3e82b7ab	0.25530753
228	0x3eaae9d0	0.3338151
229	0xbea2d9b6	-0.31806725
230	0xbddd88ae	-0.10817085
231	0x3e6781f4	0.22608167
232	0xbe477a9d	-0.19480367
233	0x3e939b40	0.28829384
234	0x3e8f4833	0.2798477
235	0xbe868624	-0.26274216
236	0x3ec62c10	0.38705492
237	0x3ea293bf	0.31753346
238	0x3e850ee0	0.2598791
239	0xbdda6e78	-0.106656015
240	0x3e90ad47	0.282572
241	0x3e4b4b21	0.19852878
242	0x3e52b35c	0.20576233
243	0xbe149975	-0.14511664
244	0xbe8cc97d	-0.27497473
245	0xbe16f9fd	-0.147438
246	0x3e7e85de	0.24855754
247	0x3e85d2d6	0.26137418
248	0xbe2e8ac7	-0.17045127
249	0xbe0e5afb	-0.13901894
250	0xbe46d832	-0.1941841
251	0xbe747052	-0.23870972
252	0xbdc02b03	-0.09383204
253	0x3e5e690c	0.2171976
254	0x3e948df3	0.2901455
255	0xbe3f2082	-0.18664744

fc2.bias f4 [10]
0	0x3fdd780f	1.7302264
1	0xbea961d8	-0.3308246
2	0xbee6088a	-0.4492839
3	0x3d588bf7	0.052867856
4	0xbeaabb74	-0.3334614
5	0xbe0f2afa	-0.13981238
6	0xbd98db74	-0.07463732
7	0xbe91a63d	-0.28447142
8	0xbea3da7d	-0.3200263
9	0xbdb9ded0	-0.09075701
