model.pth (torch, 90280 bytes, 8 tensors)

conv1.weight f4 [10, 1, 5, 5]
0	0x3f0bfad0	0.54679585
1	0x3f00526a	0.50125754
2	0x3edc9afc	0.43086994
3	0x3ec020b3	0.37524948
4	0xbf187452	-0.5955249
5	0x3e4c0dd3	0.19927149
6	0x3e8976e4	0.2684852
7	0x3ed0d6f8	0.40789008
8	0x3e1737e9	0.14767422
9	0xbf238f82	-0.6389085
10	0xbe245e78	-0.16051662
11	0x3e9eac55	0.30990854
12	0x3ecf6660	0.40507793
13	0xbe9d4f4e	-0.30724567
14	0xbf0a2527	-0.5396294
15	0x3d393476	0.045216046
16	0xbeb33a2b	-0.35005316
17	0xbda9f5de	-0.082988486
18	0xbe923feb	-0.2856439
19	0xbe5da74e	-0.21645853
20	0x3d637625	0.055532593
21	0xbe35bba6	-0.17747363
22	0xbed6092f	-0.41803882
23	0x3d932aeb	0.0718592
24	0x3d5b82f7	0.053591695
25	0xbc7783e2	-0.015107127
26	0x3e9f9591	0.31168798
27	0x3ed0bcfb	0.4076918
28	0x3ed24b83	0.41073236
29	0x3eacb097	0.33728477
30	0x3e8e94ad	0.27847806
31	0x3eb56978	0.3543203
32	0x3eadd537	0.33951733
33	0x3e6c93ef	0.23103307
34	0x3e011431	0.12605359
35	0xbcfef63a	-0.03112327
36	0xbe079bc1	-0.13243009
37	0xbe91d789	-0.28484753
38	0xbe60b5a4	-0.2194429
39	0xbe60b41c	-0.21943706
40	0x3d9a701b	0.07540914
41	0x3e80a80b	0.25128207
42	0x3e38b875	0.18039115
43	0x3e3cb83b	0.18429653
44	0xbd865151	-0.065584786
45	0x3d8f89cb	0.07008704
46	0x3e9f2a61	0.3108702
47	0x3ebe09b6	0.37116784
48	0x3ee726f2	0.451469
49	0x3e207186	0.15668306
50	0xbdbb8281	-0.09155751
51	0x3e2f8953	0.17142229
52	0x3ecd7498	0.40128016
53	0x3e9228a3	0.28546628
54	0xbd223af0	-0.03960699
55	0xbf09c3a8	-0.5381417
56	0xbf0db12b	-0.5534846
57	0xbee7798e	-0.45209926
58	0xbed1822d	-0.4091963
59	0xbdcb21a0	-0.09918523
60	0x3dfbf40b	0.12302407
61	0xbdbeb6b0	-0.093121886
62	0xbeb7bdd9	-0.3588703
63	0xbf0bab42	-0.54558194
64	0xbeb128dc	-0.34601486
65	0x3f20c0a3	0.6279394
66	0x3ea3e2e4	0.3200904
67	0x3e549ef4	0.20763761
68	0x3e976edc	0.29576766
69	0xbec794d6	-0.3898074
70	0x3f27f438	0.65607023
71	0x3f0bc602	0.5459901
72	0x3ec64cd9	0.38730505
73	0x3d71b376	0.059009038
74	0xbe3bc40b	-0.18336503
75	0xbc611e02	-0.013740065
76	0x3d42b3f7	0.04753491
77	0xbc4a34f6	-0.012341728
78	0x3e034921	0.12820865
79	0x3dc59bfc	0.09648892
80	0x3e910449	0.28323582
81	0x3e22d9a9	0.15903343
82	0xbe73de92	-0.23815373
83	0xbdb1267a	-0.08649917
84	0x3de5a1d8	0.1121251
85	0x3ebcc25b	0.3686703
86	0x3ee52bc0	0.4475994
87	0xbd0019c1	-0.03127456
88	0xbdf53a0b	-0.119739614
89	0xbed372b4	-0.4129845
90	0xbc8ae752	-0.016956005
91	0x3e533b24	0.20628029
92	0x3dea6fb5	0.11447088
93	0xbf29a566	-0.66268003
94	0xbec83b40	-0.39107704
95	0x3df271dc	0.11838123
96	0x3ea5a739	0.32354143
97	0xbef01c9b	-0.46896824
98	0xbe92cc5b	-0.28671536
99	0x3de85e20	0.11346078
100	0x3da63ddf	0.0811727
101	0xbdbae272	-0.09125222
102	0x3d5830f8	0.052781075
103	0xbe06c485	-0.13160904
104	0x3e527770	0.20553374
105	0xbeba7d22	-0.36423594
106	0xbe7775b7	-0.24165998
107	0x3e2500a0	0.1611352
108	0x3dfe5301	0.124181755
109	0x3e904ad0	0.28182077
110	0xbed5242d	-0.41629162
111	0x3e1fa2d5	0.15589459
112	0x3e40ace4	0.18815953
113	0xbdc2f8d2	-0.09520115
114	0x3e26b7ed	0.162811
115	0xbf10224e	-0.56302345
116	0x3d703bcb	0.058650773
117	0x3e937042	0.28796583
118	0x3d333df2	0.043760248
119	0xbd4fa78a	-0.050696887
120	0xbf528791	-0.8223811
121	0x3e2caf95	0.16863854
122	0x3ed68a8b	0.41902575
123	0x3e9643b7	0.29348537
124	0xbddee784	-0.10884002
125	0x3e041648	0.12899125
126	0x3e7d2323	0.24720435
127	0xbe13529c	-0.14386982
128	0xbe94cd12	-0.29062706
129	0x3c9bd37b	0.01902174
130	0x3e93e19f	0.28883073
131	0x3e62aa2b	0.22135226
132	0xbf1514d2	-0.58234894
133	0xbf08993b	-0.5335881
134	0xbda0fd95	-0.07860867
135	0x3df4671c	0.11933729
136	0xbdeac190	-0.114627
137	0xbe9cdbb8	-0.30636382
138	0x3ea3526b	0.31898817
139	0x3e935bdc	0.2878102
140	0xbe242fcc	-0.16033858
141	0x3e6d674d	0.23183937
142	0x3ec40658	0.3828609
143	0x3f00fb76	0.503837
144	0x3f0451c0	0.5168724
145	0xbd305963	-0.043053996
146	0x3f076e42	0.52902615
147	0x3f02c7cb	0.5108611
148	0x3f0babee	0.5455922
149	0x3ecce06f	0.4001498
150	0xbea01049	-0.31262425
151	0xbd562608	-0.052282363
152	0xbe5e847c	-0.21730226
153	0xbc464552	-0.012101488
154	0x3e216527	0.15761243
155	0x3e09d61e	0.13460585
156	0x3d09f385	0.033679504
157	0x3e700286	0.23438463
158	0x3d37efcb	0.04490642
159	0xbe894466	-0.26809996
160	0x3ec3242a	0.38113528
161	0xbd890f80	-0.066924095
162	0x3d7302a7	0.0593287
163	0xbe233a91	-0.1594031
164	0xbe41e821	-0.18936206
165	0xbd2f3a38	-0.04278013
166	0x3d2d3355	0.042285282
167	0x3e019f9d	0.12658544
168	0xbd87eac1	-0.06636573
169	0xbe7c2872	-0.24624804
170	0x3d1b8520	0.037968755
171	0x3e8b74f0	0.27237654
172	0x3d0764f6	0.03305527
173	0x3e7a178b	0.24423043
174	0xbeae147d	-0.34000006
175	0x3ecf7051	0.40515378
176	0x3eb41407	0.3517153
177	0x3ee36f9a	0.44421083
178	0xbe2546f8	-0.16140354
179	0xbf338c03	-0.70135516
180	0x3ecddbfb	0.40206894
181	0x3efb13fc	0.49038684
182	0x3ede3834	0.43402255
183	0x3cd44d42	0.025915746
184	0xbf35de22	-0.7104207
185	0x3edad5db	0.42741284
186	0x3ee67414	0.45010436
187	0x3eff3af0	0.49849653
188	0xbe47abda	-0.1949915
189	0xbf5627cd	-0.8365448
190	0xbc9283da	-0.017885137
191	0x3d0a78b3	0.033806514
192	0x3e3b8f96	0.18316492
193	0xbee5f7f6	-0.44915742
194	0xbf149a2a	-0.58047736
195	0x3e2601ec	0.1621167
196	0x3ded2b51	0.115805276
197	0xbd787d9d	-0.06066667
198	0xbdb8f8b4	-0.09031811
199	0x3e31f069	0.17376865
200	0xbe5de86b	-0.21670692
201	0x3e635214	0.22199279
202	0xbce2ca0d	-0.027684236
203	0x3e25adf4	0.16179639
204	0xbdb120be	-0.08648823
205	0xbef7840f	-0.4834294
206	0x3dff90ec	0.124788135
207	0x3e496ff8	0.19671619
208	0x3d703a53	0.058649372
209	0xbe157470	-0.14595199
210	0xbf1c0eb7	-0.60959953
211	0x3ec3fe3f	0.38279912
212	0x3e46a62a	0.19399324
213	0x3eb6a993	0.3567625
214	0x3e5942f5	0.21216948
215	0xbf28242f	-0.6568021
216	0x3eab9688	0.33513284
217	0x3e997683	0.2997323
218	0x3e390870	0.18069625
219	0x3eb24a8b	0.34822497
220	0xbf3753bd	-0.7161215
221	0xbe0d6f53	-0.13811998
222	0xbe72f7fc	-0.23727411
223	0xbe1117de	-0.14169261
224	0x3df60083	0.12011816
225	0xbde6161f	-0.11234688
226	0x3e15f856	0.14645514
227	0x3e802980	0.25031662
228	0xbeb79c98	-0.3586166
229	0xbed1e8f5	-0.40998045
230	0xbe72e2c2	-0.23719314
231	0x3db5ab2a	0.088705376
232	0xbde4ec63	-0.111779
233	0xbef414e5	-0.4767219
234	0xbea81110	-0.32825518
235	0xbf14a62d	-0.58066064
236	0x3d9b8fb2	0.07595767
237	0x3ed01d1f	0.40647218
238	0x3f0fb412	0.5613414
239	0xbcc7579f	-0.024333773
240	0xbf1af709	-0.60533196
241	0x3ed6be24	0.4194194
242	0x3f158cd4	0.5841801
243	0x3f278b92	0.6544734
244	0xbc122313	-0.008919495
245	0xbe39496f	-0.18094419
246	0x3f04ddd9	0.5190101
247	0x3f1654e4	0.5872328
248	0x3f12df37	0.5737185
249	0x3e7d5c84	0.24742323

conv1.bias f4 [10]
0	0x3e26c744	0.16286951
1	0x3d0c5174	0.034257367
2	0x3eb66c76	0.35629624
3	0x3e91ea80	0.28499222
4	0x3e8f0f47	0.27941343
5	0x3de2c1e2	0.110721365
6	0x3e40439d	0.18775792
7	0x3dbf9576	0.09354679
8	0x3e8a5968	0.27021337
9	0x3ed88886	0.4229166

conv2.weight f4 [20, 10, 5, 5]
0	0x3d8e4f04	0.06948665
1	0x3dbfb30b	0.093603216
2	0xbd63dc0c	-0.055629775
3	0x3d6eb95d	0.058282245
4	0x3cc95e4c	0.024581097
5	0xbcf2be20	-0.029631674
6	0xbde7bcaf	-0.113152854
7	0x3d9ee18a	0.07757862
8	0x3e156d2a	0.14592424
9	0xbc08f204	-0.008358482
10	0xbe2921db	-0.16516821
11	0xbdb89037	-0.09011882
12	0x3d2d5b55	0.04232343
13	0x3dd4b4c7	0.10386043
14	0x3be4fc2c	0.006988069
15	0xbcf4d8b2	-0.029888485
16	0x3dad59e9	0.084644146
17	0xbd14d09d	-0.03633176
18	0xbd7b894a	-0.061410226
19	0xbbc852e6	-0.006113398
20	0x3be0a963	0.00685613
21	0xbb20563d	-0.0024465465
22	0x3ccae4a9	0.024767237
23	0x3d5bc2e8	0.053652674
24	0xbda02e16	-0.0782129
25	0xbe22d3a8	-0.15901053
26	0x3d58a0cd	0.052887727
27	0x3c1a9784	0.009435538
28	0xbd3ecea8	-0.0465838
29	0xbd22d6c6	-0.039755605
30	0xbe093e07	-0.13402568
31	0xbc69c67b	-0.014268513
32	0xbc9aabcb	-0.018880745
33	0x3d68d1a5	0.056840558
34	0x3d99c618	0.075084865
35	0xbddf8875	-0.10914699
36	0x3c8b793a	0.017025579
37	0x3d8759e6	0.06608944
38	0xbbb5be9b	-0.0055464036
39	0xbcd10e2d	-0.025519455
40	0xbd9f9e27	-0.07793837
41	0xbc9bad30	-0.01900348
42	0xbd5e3cf3	-0.054257344
43	0x3b34692f	0.0027528515
44	0x3e401bc1	0.18760587
45	0xbb2e50c8	-0.0026598442
46	0x3d17bf87	0.03704789
47	0xbcacd5bb	-0.021098008
48	0xbd8bb4f6	-0.06821625
49	0xbda782ab	-0.0817922
50	0xbd8087ff	-0.06275939
51	0xbdf99af6	-0.121877596
52	0xbd04fe57	-0.03246912
53	0x3d9fc101	0.078004844
54	0xbd40df00	-0.04708767
55	0x3c8d7e55	0.017272154
56	0x3b52b4d5	0.0032151241
57	0x3a684815	0.0008860839
58	0xbd7d4ca0	-0.061840653
59	0x3dbb3275	0.09140483
60	0xbccc906f	-0.024971215
61	0x3e3b7a72	0.18308428
62	0x3e1f9fc2	0.15588287
63	0x3dc144e7	0.0943697
64	0x3d894e87	0.06704431
65	0xbd3f39a2	-0.046685822
66	0x3cf8d990	0.03037718
67	0x3dc2f5eb	0.095195614
68	0x3d3f6aca	0.0467327
69	0x3ea15ba6	0.31515235
70	0xbce3ea73	-0.027821755
71	0x3dc2a0ce	0.09503327
72	0xbb997aff	-0.0046838517
73	0xbde6d716	-0.11271493
74	0x3e039509	0.12849821
75	0x3def37de	0.11680578
76	0xbd6327be	-0.055457823
77	0xbdd9af85	-0.10629181
78	0x3cb0b774	0.021571852
79	0xbc58fb2f	-0.013243481
80	0xbd0593d9	-0.0326117
81	0xbcb78a10	-0.0224047
82	0x3dddacd7	0.10823982
83	0x3e1fcb15	0.15604813
84	0x3cf0061a	0.029299784
85	0x3d36afaa	0.04460112
86	0x3d0ecbd1	0.034862343
87	0x3ca3a94b	0.019978186
88	0x3d5fd276	0.05464407
89	0x3d5f1c47	0.054470327
90	0xbd287523	-0.041127335
91	0x3db7b256	0.08969562
92	0x3cca3bb3	0.02468667
93	0x3dc28f06	0.09499936
94	0xbcca8016	-0.02471928
95	0x3cae5f22	0.021285597
96	0xbd129352	-0.035785027
97	0xbcf8f5e3	-0.030390685
98	0xbdd6082e	-0.10450779
99	0xb98367ee	-0.000250637
100	0xbd7dfda5	-0.062009472
101	0x3e66dc35	0.2254494
102	0x3a3129fa	0.0006758269
103	0x3cc0b6e4	0.023524709
104	0x3bee4c9f	0.0072723175
105	0xbbbab9b9	-0.0056984094
106	0x3e2e8fcd	0.17047043
107	0xbd12433d	-0.035708655
108	0x3d205ce6	0.039151095
109	0xbd0c9eab	-0.034331005
110	0x3d5bd7c7	0.05367258
111	0x3c8a19e6	0.016858052
112	0xbcfd57c9	-0.030925648
113	0x3d8afe36	0.06786768
114	0xbda90fa7	-0.082549386
115	0xbd2a4263	-0.041567218
116	0x3b6a484a	0.0035748654
117	0xbd53481f	-0.051582452
118	0x3c460851	0.012086944
119	0xbd974246	-0.073856875
120	0xbbb1e3e1	-0.0054287766
121	0x3c7b1752	0.015325384
122	0xbcadc42b	-0.021211704
123	0x3cac34f1	0.021021338
124	0xbbbd31fc	-0.005773781
125	0xbe0ecd73	-0.1394556
126	0x3c35d5f7	0.0110983765
127	0x3d7d5995	0.06185301
128	0x3cc4a35b	0.024003675
129	0xbd6dc59d	-0.058049787
130	0xbcae5c0e	-0.02128413
131	0xbdfdc202	-0.1239052
132	0xbd53081e	-0.051521413
133	0xbdf19b21	-0.117971666
134	0x3dc96d25	0.09835271
135	0x3e0c2dc2	0.1368933
136	0x3bd700ba	0.006561366
137	0xbe03a81b	-0.12857096
138	0xbd945d83	-0.072443984
139	0xbddc13f1	-0.10745991
140	0x3ccc2c71	0.024923535
141	0x3d51a205	0.051179904
142	0x3d2e2b5d	0.042521823
143	0x3cb2e607	0.021838201
144	0x3b6fb4be	0.0036576237
145	0x3c166b3e	0.009180842
146	0x3d0c048e	0.03418403
147	0x3dbafc22	0.09130122
148	0x3e33824b	0.17530172
149	0x3dd3f0eb	0.10348686
150	0x3c3a2e7b	0.011363621
151	0xbd9e9c88	-0.077447
152	0xba30eca1	-0.00067491276
153	0xbd421f41	-0.047393087
154	0xbd6c3460	-0.057667136
155	0xbd750025	-0.05981459
156	0xbd69836a	-0.05701009
157	0x3b7a05af	0.003815036
158	0xbd30d0a3	-0.04316772
159	0x3d61ce45	0.055128355
160	0x3c26cc3f	0.010180532
161	0x3bc1388d	0.005896634
162	0x3da8eb24	0.082479745
163	0xbaec3f96	-0.0018024321
164	0xbce23c02	-0.027616505
165	0x3d6f3ab0	0.058405578
166	0x3d9e05ee	0.07715975
167	0xbc4d6e67	-0.012538529
168	0x3dbfb4c4	0.0936065
169	0xbcfa9508	-0.030588642
170	0x3c31b7a9	0.010847011
171	0xbd1d5d8a	-0.038419284
172	0xbc2451b0	-0.010029241
173	0xbc815b43	-0.015790587
174	0x3cb7c075	0.022430638
175	0x3d2a6efc	0.04160975
176	0xbcf1a86b	-0.029499253
177	0xbd115263	-0.03547896
178	0xbb8edc68	-0.0043597706
179	0x3d97bbfe	0.074089035
180	0xbdab53be	-0.08365582
181	0xbded215c	-0.115786284
182	0x3d3b12ee	0.04567235
183	0x3dcdc6c5	0.10047678
184	0x3b926ac6	0.004468295
185	0xbe1c36c5	-0.15255268
186	0xbe10cfe3	-0.14141802
187	0x3d787287	0.060656097
188	0x3ce9c53b	0.02853643
189	0xbd828017	-0.063720874
190	0xbd691250	-0.05690223
191	0x3d920d23	0.07131412
192	0x3d9835c8	0.07432133
193	0x3c212859	0.00983628
194	0xbdff33d8	-0.1246106
195	0xbdfbcb47	-0.122946315
196	0x3cef7ff6	0.029235821
197	0xbd511f06	-0.051054977
198	0xbbcfbdaf	-0.0063397507
199	0xbccde7ad	-0.025134886
200	0xbd7008a5	-0.058601994
201	0x3e152dbb	0.14568226
202	0xbc44694e	-0.011987997
203	0x3dd0b889	0.10191447
204	0x3d22d7d3	0.039756607
205	0xbca60eaa	-0.020270664
206	0x3e643103	0.22284321
207	0x3d157046	0.036484025
208	0xbc866477	-0.016405327
209	0xbd3aedd7	-0.045636978
210	0xbd8577ea	-0.065170124
211	0x3ddeb315	0.10874001
212	0xbd666cd0	-0.056256115
213	0x3d40b1d6	0.047044598
214	0x3df74984	0.12074569
215	0xbd2625cf	-0.0405634
216	0x3e051c70	0.1299913
217	0xbd80410c	-0.06262407
218	0xbc68b8d1	-0.01420422
219	0xbe24dae2	-0.16099122
220	0xbd14713a	-0.036240794
221	0x3dd837c4	0.105575114
222	0xbb9fd84a	-0.0048780786
223	0x3d70635e	0.058688514
224	0x3b963487	0.0045838985
225	0xbe9af897	-0.30267784
226	0x3e820f3e	0.25402254
227	0xbaf549af	-0.0018713976
228	0x3d6d5b70	0.05794853
229	0xbe1f3248	-0.15546525
230	0xbe121bea	-0.14268461
231	0x3ddbd0a9	0.10733158
232	0xbce25b11	-0.027631314
233	0xbdba04bd	-0.09082935
234	0x3d738eca	0.059462346
235	0x3d420a6c	0.04737322
236	0x3d5050dd	0.050858367
237	0xbcc4d625	-0.024027893
238	0xbd3a0bba	-0.04542134
239	0xbd1afc99	-0.037838552
240	0xbe0202ea	-0.12696424
241	0x3e07f1a7	0.13275777
242	0x3c0153ad	0.007893485
243	0x3e2977c7	0.16549598
244	0xbdb2ecbf	-0.08736562
245	0xbd8d325f	-0.06894373
246	0x3e45e659	0.19326152
247	0x3c13e370	0.009026393
248	0x3e20b75b	0.15694945
249	0x3def5f6e	0.11688124
250	0x3c37220a	0.011177549
251	0xbd431478	-0.047626942
252	0xbd8c1f1f	-0.068418734
253	0xbc83f843	-0.016109591
254	0x3d49eed5	0.049300034
255	0xbcd7d3ec	-0.02634617

conv2.bias f4 [20]
0	0x3d7adbb2	0.061244674
1	0xbd8068ea	-0.06270011
2	0x3d510d3d	0.051038016
3	0xbd06e4c4	-0.03293301
4	0xbd2e9a5d	-0.04262768
5	0xbd225da8	-0.0396401
6	0x3cc6b6ff	0.024257181
7	0xbc69c6f3	-0.014268625
8	0xbcd7e78c	-0.026355527
9	0x3caa7353	0.020806944
10	0x3cee3d5b	0.029081991
11	0x3b57d369	0.0032932407
12	0xbcee46a8	-0.029086426
13	0x3cf590f0	0.029976338
14	0x3d3f486d	0.04669993
15	0x3d1da0f5	0.03848358
16	0x3c874d81	0.016516449
17	0x3c4d2f6b	0.012523512
18	0x3d2c51eb	0.04207031
19	0xbd66b03b	-0.05632041

fc1.weight f4 [50, 320]
0	0x3a96fc62	0.0011519308
1	0xbd67c159	-0.056580875
2	0xbc9d2c62	-0.019186202
3	0xbc9733ef	-0.018457381
4	0xbafa541f	-0.0019098556
5	0xbcc5d8bd	-0.0241512
6	0x3cd06c18	0.025442168
7	0x3d40832b	0.04700009
8	0xbd3951da	-0.045244075
9	0xbce0ee30	-0.027457327
10	0xbda10400	-0.07862091
11	0x3cfdc1f6	0.030976277
12	0xba9552f3	-0.0011392519
13	0x39c90360	0.00038340222
14	0x3cac327c	0.021020167
15	0xbbe1230b	-0.0068706325
16	0xbc294e6e	-0.0103336405
17	0x3c9169ae	0.017750587
18	0x3d405412	0.046955176
19	0xbc1e32c8	-0.009655662
20	0xbc90dc35	-0.017683128
21	0xbd5547de	-0.05207049
22	0xbc8f2c5f	-0.017477212
23	0x3c03e864	0.008051012
24	0x3d46de34	0.048551753
25	0x3d352d24	0.044232503
26	0xbc9aa3ba	-0.018876899
27	0x3bc2039f	0.005920842
28	0x3afbf1b7	0.0019221817
29	0xbcde5069	-0.027137952
30	0xbc5bef6e	-0.013423784
31	0x3c1d2dc3	0.00959343
32	0x3c1b9b8f	0.009497537
33	0x3d9f28c0	0.07771444
34	0x3daec1ff	0.085330956
35	0x3d9270d0	0.071504235
36	0x3cee1724	0.029063769
37	0xbd3f3efe	-0.046690933
38	0x3da8fbfa	0.08251186
39	0x3dc5ba60	0.09654689
40	0xbc9f2842	-0.019428376
41	0xbd10652a	-0.035252728
42	0xbdacb44a	-0.08432825
43	0xbd63456f	-0.05548614
44	0x3d8fbe5d	0.07018731
45	0x3ccd9ba7	0.025098635
46	0xbd849d39	-0.064753
47	0x3bb10f1e	0.0054034134
48	0xbcfc32b1	-0.03078589
49	0x3d495111	0.049149577
50	0x3cf399ad	0.029736364
51	0x3c35212c	0.011055272
52	0x3cdc990b	0.026928445
53	0xbb851778	-0.0040616356
54	0xbd25e8e5	-0.04050531
55	0x3cc7555e	0.024332698
56	0x3c723a34	0.0147843845
57	0xbd9f87a0	-0.0778954
58	0x3d59b926	0.053155087
59	0xbd52b146	-0.051438592
60	0x3cab3e43	0.020903712
61	0x3d57a07b	0.05264328
62	0xbc7705a6	-0.01507703
63	0xbd87467c	-0.06605241
64	0xbce53563	-0.027979558
65	0xbd578828	-0.052620083
66	0x3c62bbcb	0.013838719
67	0xbd059895	-0.032616217
68	0xbd8a5a48	-0.06755501
69	0x3ca5731b	0.020196488
70	0x3d91baf9	0.0711574
71	0xbd1f1264	-0.038835898
72	0xbd482e6b	-0.048872393
73	0x3d0ab60f	0.03386503
74	0xbd1fb20d	-0.03898816
75	0x3c788414	0.015168209
76	0x3ba60e08	0.0050675906
77	0x3cc46edd	0.023978645
78	0xbe078621	-0.1323476
79	0x3b2cafaa	0.002634982
80	0xbd216e26	-0.039411686
81	0xbb160940	-0.0022893697
82	0xbd343d58	-0.044003814
83	0xbd505ccf	-0.05086976
84	0xbc0e6044	-0.008689944
85	0xbc90fbc0	-0.017698169
86	0xbd1bfca4	-0.038082734
87	0xbc3c513c	-0.011493977
88	0x3d635484	0.055500522
89	0xbd35ce5f	-0.044386264
90	0xbd181d34	-0.037137225
91	0xbd0623ec	-0.0327491
92	0xbce71c67	-0.028211785
93	0xbd2c21a2	-0.042024262
94	0x3d30658c	0.043065593
95	0xbd4de0f0	-0.050263345
96	0xbc4f40a8	-0.012649693
97	0xbca0c7fc	-0.01962661
98	0xbb80d3fa	-0.0039315196
99	0x3d8a09d9	0.067401595
100	0x3cb9e4df	0.022692142
101	0x3ab06aac	0.0013459525
102	0x3d247f7e	0.04016065
103	0x3cd780bb	0.0263065
104	0xbc8cf1a4	-0.017205067
105	0xbcf4fbf6	-0.0299053
106	0xbd195f56	-0.037444435
107	0x3c985cb2	0.018598888
108	0xba107bda	-0.00055116194
109	0xbd3e91e6	-0.04652586
110	0x3d38a322	0.04507745
111	0xbc08bfe2	-0.00834653
112	0x3d3d970a	0.04628662
113	0x3d3a23ce	0.045444302
114	0x3d6d8262	0.05798567
115	0xbc805662	-0.01566619
116	0xbd89c409	-0.06726844
117	0x3af90282	0.001899794
118	0xbd053d86	-0.032529376
119	0xbca04ffa	-0.019569386
120	0xbd165fb2	-0.036712356
121	0x3c83a88a	0.016071577
122	0x3dbd9657	0.09257191
123	0xbd098e12	-0.033582754
124	0xbd386ff5	-0.045028646
125	0x3c83cfb5	0.016090253
126	0xbdd80b2f	-0.10549008
127	0x3cd232fd	0.025659079
128	0xbc7f6110	-0.015587106
129	0xbbf9d062	-0.007623718
130	0xbc9448a1	-0.018101038
131	0xbd4583f7	-0.048221555
132	0x3ce376a9	0.027766543
133	0x3c492a77	0.012278191
134	0xbd422794	-0.047401026
135	0xbcba09d4	-0.022709765
136	0xbd49c217	-0.049257364
137	0xbd2493b0	-0.04017991
138	0x3c94b25b	0.018151453
139	0x3d621daf	0.05520409
140	0x3ceb58d1	0.028728874
141	0x3c924eb6	0.017859798
142	0x3d2fafe3	0.042892348
143	0xbd20e91d	-0.039284814
144	0x3d60cdd4	0.054883793
145	0xbbb2e1d1	-0.0054590483
146	0xbcff6ef2	-0.031180833
147	0x3d800714	0.0625135
148	0x3d3e154b	0.046407025
149	0xbc286a76	-0.0102792885
150	0x3cd25c5f	0.025678812
151	0x3d4edb04	0.05050184
152	0xbd10e32c	-0.035372898
153	0xbd7bfc55	-0.06151994
154	0x3cec209e	0.028824147
155	0xbcf1a756	-0.029498737
156	0x3cd8b756	0.026454609
157	0x3c388fa2	0.0112647135
158	0xbd4fa36d	-0.050692964
159	0x3d3fbe3a	0.046812274
160	0x3c118f30	0.008884236
161	0x3d35132c	0.044207737
162	0xbd2dd493	-0.042439055
163	0x3d2d13ee	0.042255335
164	0xbd129a3f	-0.03579163
165	0xbc569196	-0.013096234
166	0x3c0e740c	0.00869466
167	0x3cd6b5b5	0.026209692
168	0xbcad79fd	-0.021176333
169	0xbcc9d825	-0.024639199
170	0x3dbd0288	0.092289984
171	0xbbdd3330	-0.006750487
172	0x3c20e821	0.009820969
173	0x3d8ab85f	0.06773447
174	0xbe0a9b35	-0.1353577
175	0xbd6a0e82	-0.057142742
176	0x3cca9505	0.024729261
177	0xbd398f3f	-0.045302626
178	0xbd0b914b	-0.03407411
179	0x3b5aebeb	0.0033404778
180	0x3d136d6d	0.03599303
181	0xbc1c6760	-0.009546131
182	0xbd8096de	-0.06278776
183	0x3c9d1d48	0.019179001
184	0x3b6861d7	0.0035458708
185	0x3d85172f	0.064985625
186	0x3d816c95	0.063195385
187	0xbdbb35e0	-0.09141135
188	0x3b81b4f4	0.003958339
189	0x3ca26c3b	0.019826999
190	0x3d604a86	0.05475857
191	0x3d5ef65e	0.054434173
192	0xbca1ad8e	-0.019736078
193	0xbd249657	-0.040182438
194	0xbc92c73e	-0.017917272
195	0x3cbca2a0	0.023026764
196	0xbcbba8a7	-0.022907568
197	0x3d6925a4	0.056920663
198	0x3d08fcec	0.03344433
199	0x3d4d6b2f	0.050151046
200	0x3d65eb05	0.056132335
201	0x3ce352e1	0.02774948
202	0x3db3a1bc	0.08771083
203	0x3d9e4ddd	0.07729695
204	0xbc976513	-0.018480813
205	0x3c87e476	0.01658843
206	0xbdb2cafc	-0.087301224
207	0x3dceb19e	0.100924715
208	0x3c76e393	0.015068906
209	0x3c1be329	0.009514608
210	0x3c56dba0	0.013113886
211	0x3d61c53d	0.05511974
212	0xbd72ca70	-0.05927509
213	0x3b9ef50d	0.0048509897
214	0x3da826db	0.08210536
215	0xbcbb7400	-0.022882462
216	0xbb8ad38b	-0.0042366437
217	0x3ccaecfb	0.024771204
218	0x3d59b1b9	0.053148005
219	0x3c911d90	0.017714292
220	0xbd0b909b	-0.034073453
221	0x3cd4e55f	0.025988279
222	0xbc309197	-0.010776899
223	0x3cb7cfbe	0.022437926
224	0x3d58fbbc	0.052974448
225	0x3d9ccfac	0.07656798
226	0x3cf744c4	0.030184157
227	0x3d3211fc	0.043474182
228	0x3d64d817	0.05587014
229	0xbcea3b59	-0.028592752
230	0x3d3ef525	0.046620507
231	0x3e063885	0.13107498
232	0x3d926982	0.0714903
233	0xbd0aef19	-0.033919428
234	0xbd3c2919	-0.04593763
235	0x3b79bd72	0.0038107303
236	0x3c1c1d2b	0.009528439
237	0xbd610bf7	-0.05494305
238	0x3c8c1c98	0.017103478
239	0xbd84bf8b	-0.064818464
240	0x3d1725d7	0.03690132
241	0x3d005908	0.031334907
242	0xbc7e7ce3	-0.015532705
243	0xbbe6cce0	-0.007043466
244	0xbcee62d7	-0.029099865
245	0x3d01ff3d	0.031737555
246	0xbd7f0b1c	-0.062266454
247	0xbd20bb0e	-0.03924089
248	0xbc63bd78	-0.013900153
249	0x3d6b02a9	0.057375584
250	0x3c9104ac	0.017702423
251	0x3bec9040	0.0072193444
252	0x3c9c6162	0.019089404
253	0xbd015a68	-0.03158036
254	0x3d1321fe	0.03592109
255	0xbce7d3ac	-0.028299175

fc1.bias f4 [50]
0	0x3decdb5b	0.11565276
1	0xbd28a192	-0.04116971
2	0xbd0d780f	-0.034538325
3	0x3e398f65	0.18121107
4	0xbc073480	-0.008252263
5	0xbcd1a7e0	-0.025592744
6	0x3f19570c	0.5989845
7	0x3f2a6dd5	0.6657384
8	0xbd3b7d28	-0.045773655
9	0x3ed8816b	0.42286238
10	0xbcf2bef3	-0.029632067
11	0x3c8b5da1	0.01701242
12	0x3c5cc431	0.01347451
13	0xbcde62b1	-0.02714667
14	0xbc9cfbc4	-0.01916302
15	0xbcef8ccc	-0.029241942
16	0xbd5e298f	-0.054238852
17	0xbd141efe	-0.03616237
18	0xbc0c635c	-0.008568611
19	0xbcd559c3	-0.026043778
20	0xbcfb4d31	-0.030676456
21	0xbb6f363e	-0.0036500837
22	0x3cdde42d	0.027086342
23	0x3ee213d7	0.44155762
24	0xbc5794bb	-0.013158019
25	0x3eec90f3	0.46204337
26	0xbcde7640	-0.027155995
27	0x3f0b1a9a	0.54337466
28	0xbc068a66	-0.008211708
29	0x3e7bee78	0.24602687
30	0x3eb729e1	0.3577414
31	0xbd6636d5	-0.056204636
32	0x3f2732e8	0.6531205
33	0xbd56c2e9	-0.052431975
34	0x3eb260c0	0.3483944
35	0x3f10e5ae	0.56600463
36	0x3f15f084	0.5857012
37	0xbc818bf4	-0.015813805
38	0xbd7096fa	-0.058737732
39	0x3ee8ded9	0.4548252
40	0xb961ef07	-0.00021546717
41	0xbc3f41d3	-0.011673409
42	0x3e46855c	0.1938681
43	0xbd6213c2	-0.055194624
44	0xbadafbc2	-0.001670711
45	0xba203d81	-0.00061126804
46	0xbd304b48	-0.043040544
47	0xbd521891	-0.05129296
48	0x3e779f26	0.24181804
49	0x3e852706	0.26006335

fc2.weight f4 [10, 50]
0	0x3e8d7129	0.27625397
1	0xbe915e57	-0.28392288
2	0xbdbd3007	-0.09237676
3	0x3e1c6d86	0.15276155
4	0xbda9b1da	-0.082858756
5	0x3c64e9ae	0.013971729
6	0x3ee81693	0.45329723
7	0x3f3b978c	0.7327812
8	0xbe9ff203	-0.31239328
9	0x3e8a5805	0.2702028
10	0xbe9bd1eb	-0.30433592
11	0xbdb4f2fb	-0.08835407
12	0xbb90f7ec	-0.004424086
13	0xbe793798	-0.24337614
14	0xbeacf47d	-0.3378028
15	0xbe4cfabf	-0.20017527
16	0xbe56b5c9	-0.20967783
17	0xbe6e7b4d	-0.23289223
18	0xbe6f959b	-0.23396914
19	0xbeabe2d3	-0.3357149
20	0xbe6566c1	-0.22402479
21	0xbe2bcd1f	-0.16777466
22	0x3d9d2405	0.07672886
23	0x3ed4b6f5	0.41545835
24	0xbe86f9f3	-0.2636257
25	0x3edf60bb	0.43628487
26	0xbe6532c2	-0.22382644
27	0x3ea278db	0.3173283
28	0xbdc3ca96	-0.095601246
29	0x3e8ff5a0	0.28117085
30	0x3e87e9f9	0.26545694
31	0xbe8d1020	-0.27551365
32	0x3f45995c	0.7718713
33	0xbe9bee72	-0.30455357
34	0x3e95245f	0.2912931
35	0x3ef7ee76	0.4842412
36	0x3ef0dc26	0.4704296
37	0xbe2798d0	-0.16366887
38	0xbe74803f	-0.23877047
39	0x3eccabbc	0.39974773
40	0xbe56ca1c	-0.20975536
41	0xbe76b82e	-0.24093696
42	0x3e0aee7c	0.13567537
43	0xbe4d5613	-0.20052366
44	0xbe93de56	-0.28880566
45	0xbe18f5c4	-0.14937502
46	0xbe85a77e	-0.2610435
47	0x3d0f2a8a	0.034952678
48	0x3e9579b9	0.2919443
49	0x3e924cb5	0.28574148
50	0x3e806ddb	0.25083813
51	0xbeb9af60	-0.36266613
52	0x3e9f4189	0.31104687
53	0x3e703237	0.23456655
54	0x3e72fac1	0.23728468
55	0xbe4e7e93	-0.20165472
56	0xbe42b6ef	-0.19015096
57	0xbe2261df	-0.15857647
58	0xbe7d1608	-0.24715436
59	0x3e901726	0.2814266
60	0x3e3feeb4	0.18743402
61	0x3e2ef593	0.17085867
62	0xbe333326	-0.1749998
63	0xbe77600d	-0.24157734
64	0x3e3e5e7f	0.18590735
65	0x3ea748c7	0.32672712
66	0x3e6d6621	0.2318349
67	0xbe975e8b	-0.29564318
68	0x3e55b75a	0.20870724
69	0x3e49e961	0.19717933
70	0xbcb0c3ca	-0.021577735
71	0x3ea56494	0.32303298
72	0xbe4e52a4	-0.20148712
73	0x3ec53d3a	0.38523275
74	0x3e90ee88	0.28306985
75	0xbe5f30ab	-0.21795909
76	0xbe3d8794	-0.1850875
77	0x3e5dd433	0.21662979
78	0xbe4986a0	-0.19680262
79	0xbe16dc23	-0.14732413
80	0xbead31ed	-0.33827153
81	0xbe6b0ec2	-0.22954848
82	0xbe02dad5	-0.1277879
83	0xbe7d5d0c	-0.24742526
84	0x3e65dd83	0.22447781
85	0xbe0e12cd	-0.1387436
86	0x3ed64afa	0.41854078
87	0x3e90eed0	0.283072
88	0xbdf65f08	-0.120298445
89	0xbe2e0fa0	-0.16998148
90	0x3e801451	0.250155
91	0x3e8695d2	0.2628618
92	0x3e1458cd	0.14487
93	0x3e8af735	0.2714173
94	0x3e947aa7	0.28999826
95	0xbe8d2197	-0.2756469
96	0xbe9d9f09	-0.30785397
97	0xbea9fcf9	-0.33200815
98	0x3ebfd7bd	0.37469283
99	0xbe57ff53	-0.21093492
100	0x3e906a6b	0.2820619
101	0x3e9bc3e3	0.30422887
102	0x3e9a407e	0.3012733
103	0xbf03042a	-0.5117823
104	0xbe8feb78	-0.28109336
105	0x3eaa24c4	0.33231175
106	0x3edb2157	0.42798874
107	0xbe278eb8	-0.16363037
108	0x3e57da7e	0.21079442
109	0x3e6ff800	0.23434448
110	0x3df865e6	0.121288106
111	0x3e72c3c7	0.23707496
112	0x3e8ed060	0.27893353
113	0x3e984a1b	0.29744038
114	0xbea04ded	-0.31309453
115	0x3e8a0189	0.26954296
116	0xbe8078da	-0.25092202
117	0xbec05958	-0.37568164
118	0x3e8b4dda	0.27207834
119	0x3e2e83f4	0.17042524
120	0xbdec3ff4	-0.115356356
121	0x3e90e362	0.2829848
122	0xbdc1a91f	-0.094560854
123	0x3ea8e742	0.32988936
124	0xbed0fb2f	-0.40816638
125	0xbe898a7b	-0.26863465
126	0x3e9f7a93	0.31148204
127	0xbe778889	-0.24173178
128	0xbdf32aee	-0.118734226
129	0xbe703cfd	-0.23460765
130	0xbea7f80d	-0.32806435
131	0xbe8debc2	-0.2771893
132	0xbd07c368	-0.03314534
133	0x3e818890	0.252995
134	0x3e869f2e	0.2629332
135	0x3ec459ae	0.3834967
136	0xbe670219	-0.22559394
137	0xbe843ae2	-0.25826174
138	0xbd62406f	-0.05523723
139	0xbe1d1066	-0.15338287
140	0x3e5f8770	0.21829009
141	0xbe288559	-0.16457118
142	0x3e2197ff	0.15780638
143	0x3eae149b	0.34000096
144	0xbee77a6b	-0.45210585
145	0xbe9c4bb3	-0.30526504
146	0x3e7948a9	0.24344124
147	0x3ea8cf16	0.32970494
148	0xbec5fe98	-0.38670802
149	0x3e999087	0.29993078
150	0xbd8bb15f	-0.0682094
151	0xbddd3d95	-0.108027615
152	0xbe59ec39	-0.21281518
153	0x3e64a7b8	0.22329605
154	0xbdb61a88	-0.08891779
155	0x3eb598da	0.3546818
156	0xbe2d12f6	-0.16901764
157	0xbe289208	-0.16461957
158	0x3e7111f6	0.23542008
159	0x3e9bbace	0.30415958
160	0x3e461c39	0.19346704
161	0x3e64d184	0.22345549
162	0xbe387b74	-0.18015844
163	0xbe0155ac	-0.12630337
164	0x3e912b83	0.2835351
165	0xbe6ea78c	-0.23306102
166	0xbeac6dcb	-0.33677515
167	0x3e7e87f7	0.24856554
168	0x3e8f65c8	0.2800734
169	0x3e89a9ba	0.26887304
170	0x3e8fcb6a	0.2808488
171	0x3e876cb5	0.26450124
172	0xbe8697cd	-0.2628769
173	0xbd8e7f13	-0.06957831
174	0x3e9c8fac	0.30578363
175	0x3ea9ac87	0.3313944
176	0x3edb6071	0.42847016
177	0x3e7d4e01	0.24736787
178	0x3ec21bd1	0.37911847
179	0xbe942050	-0.28930902
180	0xbeb23ea0	-0.34813404
181	0xbea2f80e	-0.31829876
182	0xbdda0f25	-0.1064742
183	0xbea1062d	-0.31450024
184	0xbeb18f3e	-0.34679598
185	0xbdbcb99e	-0.09215091
186	0xbe615976	-0.22006783
187	0xbe89f595	-0.26945177
188	0x3e9e7b42	0.30953413
189	0xbe98ba79	-0.29829767
190	0xbe145d01	-0.14488603
191	0xbe8a7123	-0.2703944
192	0xbe9dc362	-0.30813128
193	0xbe3f2391	-0.18665911
194	0xbe3430c8	-0.17596734
195	0xbe583b8c	-0.21116465
196	0x3ea45935	0.3209931
197	0xbe80c02b	-0.25146613
198	0xbe6600e0	-0.22461271
199	0xbe0da95c	-0.13834137
200	0xbe09d6f6	-0.13460907
201	0xbe332195	-0.1749328
202	0x3eb066d9	0.34453467
203	0x3dd6a0c1	0.1047988
204	0x3e962709	0.29326656
205	0xbe2b464f	-0.1672604
206	0xbe957952	-0.29194123
207	0xbd7ed4ee	-0.062214784
208	0xbe825669	-0.2545655
209	0xbe8904d0	-0.26761484
210	0xbe521313	-0.20515089
211	0xbe877d47	-0.26462767
212	0x3e963dfd	0.29344168
213	0xbea3b853	-0.31976566
214	0x3e6f3175	0.2335871
215	0x3e79a994	0.24381095
216	0xbe3b610f	-0.18298744
217	0x3e530500	0.20607376
218	0xbe88dae9	-0.26729515
219	0xbe2a4989	-0.16629614
220	0x3ea8c75c	0.329646
221	0x3e7e9fb3	0.24865608
222	0x3e8bc912	0.27301842
223	0x3eae6ff5	0.3406979
224	0xbd603e2e	-0.0547468
225	0xbe25481a	-0.16140786
226	0xbe2d7fce	-0.16943285
227	0x3e831267	0.25599977
228	0x3eaac6ad	0.33354703
229	0xbea2db81	-0.31808093
230	0xbddd6e4d	-0.10812054
231	0x3e664674	0.22487813
232	0xbe477c8a	-0.19481102
233	0x3e9432b3	0.2894493
234	0x3e8f838e	0.28030056
235	0xbe868757	-0.2627513
236	0x3ec6a988	0.38801217
237	0x3ea48b11	0.3213735
238	0x3e8525db	0.26005444
239	0xbdda8bc4	-0.106711894
240	0x3e90ef03	0.2830735
241	0x3e4a2831	0.19741894
242	0x3e521689	0.20516409
243	0xbe14afae	-0.14520141
244	0xbe8cca4c	-0.2749809
245	0xbe16fd9a	-0.14745179
246	0x3e7ed354	0.24885303
247	0x3e860c6d	0.26181355
248	0xbe2e8f69	-0.17046894
249	0xbe0e5f6e	-0.13903591
250	0xbe46dda6	-0.1942049
251	0xbe7474ab	-0.2387263
252	0xbdc02c48	-0.09383446
253	0x3e5f9447	0.21833907
254	0x3e9634bd	0.2933711
255	0xbe3f23fb	-0.18666069

fc2.bias f4 [10]
0	0x3fdd848c	1.7306075
1	0xbea994a0	-0.33121204
2	0xbee60f27	-0.44933435
3	0x3d59b5e5	0.053151984
4	0xbeaaba06	-0.3334505
5	0xbe0f098c	-0.13968486
6	0xbd98efb6	-0.07467596
7	0xbe91b5f9	-0.28459147
8	0xbea3de9f	-0.32005784
9	0xbdba3d30	-0.09093702
