model.pth (torch, 90280 bytes, 8 tensors)

conv1.weight f4 [10, 1, 5, 5]
000000 41 4d f1 3e 98 52 e0 3e 0c 96 ad 3e cb 3d a0 3e
       0.47129253 0.43813014 0.3390354 0.31297144
000010 67 8a 09 bf 69 7c 24 3e 2a 91 7a 3e b3 f6 b3 3e
       -0.5372681 0.16063084 0.24469438 0.35149154
000020 c8 b5 c1 3d e2 d8 13 bf 63 8a 30 be 43 9e 90 3e
       0.094585 -0.5775281 -0.1724029 0.28245744
000030 0a 4e b5 3e 13 6f 83 be 5c ed f1 be ac fd b0 3d
       0.35411102 -0.2567068 -0.47251403 0.08642134
000040 78 c2 9a be f9 b6 1d bd 3c 15 80 be 8a c1 36 be
       -0.30226493 -0.038504574 -0.250162 -0.17847267
000050 10 f5 49 3d 50 b3 1d be 6d c6 d4 be 20 d1 5c 3d
       0.049305975 -0.15400434 -0.41557637 0.053910375
000060 8d 3c 2c 3c 36 71 09 bd 61 d6 8e 3e 22 f9 be 3e
       0.010512483 -0.033555232 0.27897933 0.37299448
000070 4e 25 c6 3e f3 b3 9d 3e 26 1d 84 3e b2 84 b2 3e
       0.38700336 0.30801353 0.25803488 0.34866863
000080 5f 6a 96 3e 94 e8 41 3e a6 b7 da 3d 1e 0e 42 bc
       0.2937803 0.18936378 0.106795594 -0.011844186
000090 51 4d d6 bd b2 01 6f be 9c 0c 34 be 4d ce 42 be
       -0.10463966 -0.2334049 -0.17582935 -0.1902401
0000a0 f4 75 78 3d f9 98 7b 3e 5d f4 2c 3e 8e 50 34 3e
       0.060659364 0.24570073 0.16890092 0.17608854
0000b0 c3 76 72 bd 78 21 46 3d 9f 35 94 3e 35 dd ab 3e
       -0.05919529 0.048371762 0.2894716 0.33567205
0000c0 b4 10 d2 3e 6c ed 09 3e 7d cf b3 bd 09 84 0b 3e
       0.41028368 0.13469476 -0.087798096 0.13624586
0000d0 df 50 c0 3e df 3a 7b 3e 45 1c 22 bd fb f8 f6 be
       0.375617 0.24534176 -0.03957774 -0.48236832
0000e0 8c cb 01 bf 5f e9 da be a0 dc c8 be 3b c0 d5 bd
       -0.5070121 -0.42756173 -0.39230824 -0.10437056
0000f0 f2 ce c6 3d f8 23 a6 bd ed ea ab be 3b 8a ee be
       0.097074404 -0.08112329 -0.33577672 -0.46589836
000100 d1 a7 89 be 39 ad 0d 3f ae ef 85 3e 1a 80 2c 3e
       -0.26885846 0.5534244 0.26159424 0.16845742
000110 29 ea 88 3e 00 de bc be 7f c0 11 3f 77 10 f3 3e
       0.2674115 -0.36888123 0.5693435 0.474735
000120 f2 ca b1 3e f3 66 16 3c 6c 8d 09 be 5f c6 6e 3c
       0.34725147 0.009179818 -0.13432854 0.014573663
000130 de 00 73 3d 15 e7 fb bc cb b6 ce 3d d9 93 9c 3d
       0.059327 -0.030749837 0.10093459 0.07645387
000140 27 ab 83 3e 46 7c 01 3e db b8 71 be 95 cd 99 bd
       0.25716516 0.12645063 -0.23605673 -0.07509915
000150 9e 8b c7 3d b4 b1 a3 3e 7e 55 cc 3e 3e 25 73 bd
       0.09743427 0.31971514 0.39908975 -0.05936169
000160 c0 9e a7 bd ca 37 c4 be 4c 20 45 bd c5 ea 2f 3e
       -0.08184576 -0.38323814 -0.048126504 0.17179401
000170 d4 4e bb 3d df a0 12 bf 5b 55 b6 be 6a 41 d3 3d
       0.09145895 -0.5727672 -0.35611996 0.10315211
000180 16 ee 96 3e 21 b8 d9 be b3 c6 5b be e8 41 f0 3d
       0.2947852 -0.42523292 -0.21462516 0.117313206
000190 9f 6d cc 3d 2d 48 6d bd 03 cf 75 3d bc 2f 0e be
       0.09981846 -0.05793016 0.060011875 -0.13885397
0001a0 ca 7b 47 3e 4a ed a6 be e7 0e 75 be 4d a7 1c 3e
       0.19480816 -0.32602912 -0.23931466 0.15298195
0001b0 27 56 fc 3d e3 f0 8a 3e 51 61 bf be 37 49 0f 3e
       0.1232112 0.27136907 -0.37378934 0.13992773
0001c0 16 9b 26 3e bd d9 fe bd a8 ed 03 3e bb 3b fe be
       0.16270098 -0.12443874 0.12883627 -0.49654946
0001d0 66 ef 46 3d 1b 9a 8a 3e ed 35 0a 3d a5 fe 29 bd
       0.048568152 0.27070698 0.033742834 -0.041502614
0001e0 bf ab 36 bf 63 84 0e 3e b6 51 c2 3e ec 33 83 3e
       -0.71355814 0.13917689 0.37952965 0.2562555
0001f0 d8 a2 f1 bd 69 8a 9c 3d b9 89 64 3e f0 fc 1c be
       -0.11798638 0.07643587 0.22318162 -0.15330863
000200 01 4f 7b be 94 b6 05 3d 8f 53 81 3e 8e 52 5a 3e
       -0.24541856 0.032644823 0.25259063 0.21320555
000210 1f b4 04 bf 3a 2e dc be 28 40 4e bd 84 7e f3 3d
       -0.5183734 -0.43004018 -0.050354153 0.11889365
000220 b3 af d8 bd 91 42 95 be a9 d4 91 3e be 15 87 3e
       -0.10580387 -0.2915235 0.2848256 0.26383775
000230 13 6d 1e be 50 70 4a 3e 1d 7b a5 3e e8 42 e5 3e
       -0.15471296 0.19769406 0.3232049 0.44777608
000240 cd fd ec 3e f2 69 97 bd 1c dc ec 3e 4d 70 e4 3e
       0.46287385 -0.07393254 0.4626168 0.4461693
000250 1f b4 f6 3e ab f9 ad 3e f9 36 92 be 6e 07 d0 bc
       0.48184296 0.33979544 -0.28557566 -0.025394168
000260 a9 a4 4d be 1b b5 d5 bb ec be 16 3e a4 c1 05 3e
       -0.20082344 -0.0065218336 0.14721268 0.1306215
000270 51 89 18 3d 05 f1 6d 3e 15 07 4a 3d 23 db 78 be
       0.03724033 0.23236473 0.04932316 -0.24302344
000280 af d9 b7 3e 89 dd 9d bd 52 47 2e 3d 65 ea 1b be
       0.35908267 -0.0770827 0.042548485 -0.15226133
000290 a4 e0 3e be 2b d4 7a bd 15 37 b5 3c 61 85 ed 3d
       -0.18640381 -0.061237495 0.022120992 0.11597706
0002a0 29 bf 80 bd 87 70 68 be 08 e2 bb 3c 36 8e 82 3e
       -0.06286461 -0.22699176 0.022934929 0.25499123
0002b0 33 cf 95 3c 8b d4 6a 3e 1a ac 9e be 7c 34 c1 3e
       0.018287277 0.22932641 -0.30990678 0.37735355
0002c0 31 4c 97 3e 5f 04 c4 3e f2 b9 3b be 3f 1c 1c bf
       0.29550317 0.38284585 -0.18332651 -0.609806
0002d0 7f cd c2 3e 01 c7 e4 3e e7 cc be 3e b2 43 b4 3b
       0.38047406 0.44683078 0.37265703 0.005501234
0002e0 0d 7d 19 bf c6 21 cd 3e 75 ea cf 3e d7 e5 c6 3e
       -0.5995644 0.4006483 0.40608564 0.3884723
0002f0 01 78 39 be b3 c3 3f bf 12 5e 69 bc 7f 28 33 3d
       -0.18112184 -0.7490799 -0.0142436195 0.043739792
000300 e7 2f 41 3e eb ac c1 be 19 78 05 bf 87 89 34 3e
       0.1886593 -0.37827238 -0.5213638 0.17630588
000310 f4 90 e1 3d dd d4 9f bd f5 ea a4 bd e8 c9 43 3e
       0.11013976 -0.07804272 -0.08052627 0.1911999
000320 05 80 43 be c0 0e 52 3e 51 8f 39 bd 0a 5b 38 3e
       -0.19091804 0.20513439 -0.045302693 0.18003479
000330 4d b4 90 bd 2c f4 cc be c3 73 a8 3d 1e 0f 4d 3e
       -0.0706564 -0.40030038 0.08225205 0.20025298
000340 68 cd 5a 3d 1c bf 02 be 19 e7 0a bf 84 3f a5 3e
       0.053418547 -0.12768215 -0.5425888 0.3227502
000350 a9 eb 2a 3e 86 21 a3 3e 54 ef 49 3e 24 33 16 bf
       0.1669146 0.31861514 0.19720203 -0.58671784
000360 44 bf 8e 3e e0 50 82 3e d0 41 10 3e 75 56 a0 3e
       0.278803 0.25452328 0.14087605 0.3131596
000370 2b 32 20 bf 1b 4d e4 bd 71 88 6d be 9c a5 03 be
       -0.6257655 -0.11147519 -0.2319658 -0.12856144
000380 cf fa c6 3d ec ee c4 bd 1d 02 13 3e d9 f0 66 3e
       0.09715807 -0.09615883 0.14356275 0.22552814
000390 87 09 9e be e6 c1 bd be ad 06 72 be f1 2a c1 3d
       -0.30866644 -0.37061995 -0.23635359 0.094320185
0003a0 70 12 ca bd d2 d3 db be db 42 92 be 02 32 02 bf
       -0.09866798 -0.42935044 -0.28566632 -0.50857556
0003b0 16 6e 83 3c ea f0 b5 3e e7 19 ff 3e 83 72 0e bd
       0.016043704 0.35535365 0.4982445 -0.034777176
0003c0 67 78 0d bf 16 cd b7 3e 10 a3 04 3f c7 0d 12 3f
       -0.55261844 0.35898656 0.51811314 0.5705227
0003d0 5d 29 07 bd b7 4b 29 be 0a ad ed 3e 50 51 03 3f
       -0.03299843 -0.16532789 0.4642108 0.5129595
0003e0 8b 77 f6 3e 62 57 4d 3e
       0.4813808 0.20052865

conv1.bias f4 [10]
000000 af f8 0f 3e 4b 82 0c 3d 60 63 9f 3e c1 6d 82 3e
       0.14059709 0.034303945 0.31130505 0.2547436
000010 19 0b 89 3e 40 57 d3 3d f7 73 2c 3e 62 68 9a 3d
       0.2676628 0.10319376 0.16841112 0.07539441
000020 63 0d 7b 3e 0a 5e cc 3e
       0.24516825 0.39915496

conv2.weight f4 [20, 10, 5, 5]
000000 63 9d 86 3d f5 ca ae 3d 6b df 56 bd 7d 57 69 3d
       0.06572988 0.08534805 -0.05245916 0.0569682
000010 62 23 7f 3c 99 f9 d2 bc 39 71 b8 bd 96 38 a5 3d
       0.015572401 -0.025753783 -0.090059705 0.080674335
000020 6b 73 f0 3d 3e 2a 7b bc 4e 80 08 be ed ed 93 bd
       0.11740764 -0.015329896 -0.13330194 -0.07223115
000030 8a 69 b3 3c 4e 79 c1 3d 64 84 d5 3b 55 c2 b3 bc
       0.02190091 0.09446965 0.0065160263 -0.02194325
000040 5c 68 98 3d a2 f2 cd bc 74 b0 81 bd 94 08 4a 3c
       0.0744178 -0.02514011 -0.06332484 0.012331147
000050 3d fb 2e 3c eb 5b 01 bc ec c5 0c 3d b9 fe 65 3d
       0.010680017 -0.00789545 0.03436844 0.056151126
000060 e8 61 69 bd 4f fc 12 be 35 b0 4b 3d b8 48 10 3c
       -0.056978136 -0.1435406 0.04972859 0.0088064
000070 db 7a 3c bd 19 b1 1b bd 03 1b fa bd d0 36 c1 bb
       -0.0460156 -0.03801069 -0.12212183 -0.0058964267
000080 8a aa 65 bc 42 40 81 3d 2a 80 95 3d 09 dc b0 bd
       -0.01401771 0.06311084 0.07299836 -0.086357184
000090 e3 8d ab 3c 37 73 74 3d 36 ba b9 bb 37 91 d5 bc
       0.02094168 0.05968019 -0.00566795 -0.02607022
0000a0 4c 37 8a bd 34 d7 3e bc d9 f9 3f bd fb c4 19 bc
       -0.06748828 -0.011647988 -0.046869133 -0.009385343
0000b0 57 cd 2b 3e 59 76 cd ba a0 e0 07 3d 3b d7 41 bc
       0.1677755 -0.0015675529 0.033173203 -0.0118311
0000c0 ac 92 8d bd 6b 87 9b bd 5a 1b 6f bd 26 8c c3 bd
       -0.06912741 -0.07594188 -0.058375694 -0.095482156
0000d0 94 02 d0 bc 80 73 77 3d 08 45 4f bd 1f e4 fd 3c
       -0.025391854 0.060412884 -0.050602943 0.030992566
0000e0 be 6b c1 3b e5 fe 36 3b 64 b8 67 bd be 6e cc 3d
       0.0059027364 0.0027922925 -0.056572333 0.0998206
0000f0 37 18 a2 bc 35 95 2a 3e 36 15 1a 3e 14 b1 b2 3d
       -0.019786937 0.1665848 0.15047154 0.08725181
000100 3f 39 63 3d f8 6d c2 bc 5e 11 05 3d fd d4 b4 3d
       0.055474516 -0.023734078 0.032487266 0.08829687
000110 4c 61 05 3d d6 ba 8a 3e 62 5e a4 bc 06 1c c1 3d
       0.032563493 0.2709567 -0.020064536 0.09429173
000120 c9 01 5e 3b b8 2e d1 bd 06 77 da 3d e1 a3 b6 3d
       0.0033875576 -0.10213989 0.10667233 0.08917976
000130 98 07 3a bd 46 8e c0 bd dd ac 23 3b 97 ee 11 bc
       -0.0454174 -0.094021365 0.002497486 -0.008906982
000140 28 90 bf bc 66 d2 14 bc 75 ac d1 3d 0d 87 04 3e
       -0.023384169 -0.009083366 0.10237972 0.12942143
000150 ae 14 17 3d bd 26 59 3d 0c 11 d4 3c c3 d9 c9 3b
       0.036884956 0.05301546 0.025887035 0.0061599924
000160 b3 7d 40 3d 87 4f 79 3d 29 5f c3 bc 05 7f a3 3d
       0.046994876 0.06086686 -0.023849087 0.079832114
000170 2b f4 bc 3c eb 13 b4 3d a6 20 b4 bc 7e 9b c2 3c
       0.023065647 0.087928616 -0.021988224 0.023755785
000180 2f 5b f4 bc 42 cf cd bc e0 38 b6 bd 04 57 ac bb
       -0.029828636 -0.025123242 -0.08897567 -0.0052593965
000190 cb 9f 4d bd 0f 52 4d 3e 6c d6 e9 3b 22 a9 0e 3d
       -0.05020122 0.20050834 0.007136157 0.034829266
0001a0 86 14 4d 3c 52 41 c4 bb 54 90 1b 3e a3 5f d2 bc
       0.0125171 -0.005989232 0.15191776 -0.025680369
0001b0 e9 0d 36 3d a4 44 24 bd 0d fe 21 3d ed 16 77 3c
       0.04444686 -0.040104523 0.039548922 0.0150811495
0001c0 35 b0 9c bc 4d 7e 84 3d 14 ca 91 bd cf 8c 22 bd
       -0.01912699 0.064694025 -0.071186215 -0.039685067
0001d0 91 dd 6f 3c 33 f6 3b bd d1 7d c4 3b 5e f6 80 bd
       0.014640228 -0.04588909 0.005996444 -0.06296991
0001e0 c5 c1 10 bb 1e 87 5e 3c 11 b5 88 bc 24 d5 7f 3c
       -0.0022088152 0.013582019 -0.016687902 0.0156147815
0001f0 1b 7a 0c ba fc a8 eb bd c7 e6 81 3b cf b2 34 3d
       -0.00053587713 -0.115068406 0.0039642784 0.044115838
000200 0a ad ec 3c fb b0 63 bd 7e b3 f1 bc b2 ae e1 bd
       0.028891105 -0.055588704 -0.029504534 -0.110196486
000210 fc 73 f8 bc 26 69 d3 bd 03 39 ca 3d 62 2b 07 3e
       -0.030328743 -0.1032279 0.09874155 0.13200143
000220 50 8f c3 3c 20 8f ef bd e4 53 93 bd 70 62 a8 bd
       0.023872048 -0.11697221 -0.07193735 -0.082219005
000230 7e 13 01 3d b0 2f 60 3d ec b1 17 3d d5 b5 8a 3c
       0.03151273 0.05473298 0.037034914 0.016932407
000240 34 f8 d5 3b a0 1c c4 3c d7 77 6c 3c 92 7d 9d 3d
       0.0065298323 0.02393943 0.014432869 0.07689966
000250 36 ee 1b 3e 65 fe af 3d 2b 0a 6e 3c 04 0a 92 bd
       0.15227589 0.08593444 0.014528791 -0.071308166
000260 06 30 66 3b d2 cb 53 bd dc 71 6b bd 88 69 68 bd
       0.003512384 -0.05170805 -0.05748163 -0.056741267
000270 55 c3 53 bd 82 df 87 ba c3 7f 37 bd d7 93 5f 3d
       -0.051699955 -0.0010366293 -0.044799577 0.05458435
000280 38 cb 3f 3c ac f1 27 3a f1 86 a5 3d c1 8e 2c bb
       0.011706166 0.00064065563 0.08082379 -0.0026330205
000290 2b 5f ba bc 51 6d 65 3d ff 8b 9d 3d 1d 7f 24 bc
       -0.022750458 0.056012455 0.07692718 -0.010040072
0002a0 e4 11 af 3d f8 a0 18 bd 16 02 79 3c 46 4b fd bc
       0.08548334 -0.037262887 0.015198251 -0.030919682
0002b0 5c 71 15 bc b5 37 1e bc de 40 3d 3c 6a 67 17 3d
       -0.009121265 -0.009656836 0.01155111 0.036963858
0002c0 1f 9c cc bc ce b2 ce bc 91 bd bb bc 2c b7 8a 3d
       -0.024976788 -0.025231745 -0.02291754 0.067732185
0002d0 7f fc 96 bd bf 3e a0 bd 88 55 47 3d f1 0f 94 3d
       -0.073723786 -0.07824468 0.048665553 0.07229603
0002e0 1a bd 21 3c 15 a3 fa bd cb 29 04 be e6 ae 3a 3d
       0.0098717455 -0.12238137 -0.12906568 0.045576952
0002f0 8f 50 cb 3c 83 13 48 bd db 77 38 bd ec 26 3e 3d
       0.024818687 -0.048846733 -0.045036178 0.046423838
000300 4a fa 9e 3d e8 ff dc 3b dc 8d d2 bd ca 9e e8 bd
       0.077625826 0.0067443736 -0.10280964 -0.113584116
000310 0a be b7 3c a4 95 28 bd 04 34 8e bb 6b 81 b2 bc
       0.022429485 -0.041158333 -0.004339697 -0.021790227
000320 e7 9c 3d bd d4 9f f5 3d d9 04 c6 bb bb ef d3 3d
       -0.04629221 0.119933754 -0.0060430584 0.10348459
000330 38 1a 39 3d 18 f9 0e bc 7c bb 4a 3e 44 7c 0e 3d
       0.04519102 -0.008726381 0.19798082 0.034786478
000340 a3 90 53 bc 69 c0 2f bd df d1 90 bd 5f 43 e6 3d
       -0.012912902 -0.042908106 -0.0707128 0.11243319
000350 72 dc 33 bd 0b 2f 2b 3d 48 ed e3 3d 05 30 46 bd
       -0.043911405 0.04179291 0.11129242 -0.04838564
000360 c1 f8 04 3e b8 88 62 bd 16 bc 89 bc 1f ba 06 be
       0.12985517 -0.055306166 -0.01681332 -0.13156937
000370 ed 37 0a bd d2 ee c6 3d 52 ee de 3a 31 c2 5a 3d
       -0.03374474 0.0971352 0.0017008281 0.05340785
000380 e3 bb d5 3c ff f9 85 be 37 08 66 3e f1 a6 14 bc
       0.026090568 -0.26167294 0.22464071 -0.009073005
000390 f3 a0 69 3d 42 63 17 be 3d cb f8 bd f2 33 ba 3d
       0.05703826 -0.14783958 -0.121481396 0.09091939
0003a0 55 37 28 bc 8d 68 85 bd 52 1f 49 3d 44 66 07 3d
       -0.010267098 -0.06514082 0.049102135 0.033056512
0003b0 84 87 7e 3d d2 ce 3f bb 1d 21 22 bd b9 ae aa bc
       0.062140957 -0.0029267562 -0.03958236 -0.020835267
0003c0 bd a3 f7 bd 5f 38 08 3e 95 97 de 3b 57 4b 17 3e
       -0.120917775 0.13302754 0.0067929723 0.14774834
0003d0 82 24 7e bd b4 4d 73 bd 75 5e 35 3e 66 10 47 3c
       -0.062046535 -0.059400275 0.17711814 0.012149906
0003e0 dd c6 fa 3d 52 73 cc 3d 48 d1 cc 3b cd 3d 24 bd
       0.122449614 0.09982933 0.006250534 -0.040098
0003f0 38 cd 7d bd fe 3c e0 bc 0e d9 20 3d 16 69 cf bc
       -0.06196329 -0.027372833 0.0392695 -0.025318664

conv2.bias f4 [20]
000000 10 9d 7d 3d 23 92 80 bd 33 21 54 3d c9 a9 03 bd
       0.061917365 -0.06277873 0.051789474 -0.03214434
000010 69 63 2c bd a8 5d 22 bd ac 40 c7 3c 9d 81 5b bc
       -0.042086992 -0.0396401 0.02432283 -0.013397601
000020 13 07 dd bc 6a a4 84 3c d5 f3 ea 3c 9f e9 4c 3b
       -0.026980912 0.01619168 0.028680721 0.0031267179
000030 71 56 fd bc e4 5c fd 3c 39 65 41 3d c8 92 19 3d
       -0.030925008 0.030928083 0.047215674 0.037493497
000040 44 1d 8d 3c 63 8c 60 3c 42 dc 2b 3d 8f 71 64 bd
       0.017225869 0.013705346 0.0419581 -0.05577236

fc1.weight f4 [50, 320]
000000 d8 5b a9 bb 7c ee 85 bd 68 f5 95 bc 61 4b 9b bc
       -0.0051684193 -0.06539628 -0.018305495 -0.018956842
000010 c3 da 25 3c 67 b8 d6 bc 1b 2d d8 3c 29 71 54 3d
       0.010122958 -0.026210977 0.026388695 0.05186573
000020 c2 c8 0e bd 0b eb 0a bd 0d 7a 89 bd 5c 52 45 3d
       -0.034859426 -0.03391556 -0.067127325 0.048174247
000030 5a a7 9f 3c 11 74 a1 3b 7a ec 86 3c 62 9a a1 3b
       0.01948898 0.0049271663 0.016470183 0.004931734
000040 60 e6 29 bc 58 4a 91 3c 50 43 40 3d 33 50 1f bc
       -0.010369867 0.017735645 0.046939194 -0.009723711
000050 6d 6f 93 bc a3 fc 56 bd 84 77 8f bc 68 b6 04 3c
       -0.017997468 -0.052487027 -0.017513044 0.00810013
000060 99 d8 4e 3d b0 ad 33 3d 92 bc d9 bc 3d 07 b7 3b
       0.050499532 0.043866813 -0.026579175 0.0055855797
000070 fe 11 18 3b a5 fb e4 bc f8 3e ce bb 40 5b 1b 3c
       0.0023204084 -0.027952025 -0.0062941276 0.009482205
000080 6b e1 23 3b 48 39 87 3d cd 2a 95 3d ce 25 59 3d
       0.0025006186 0.066027224 0.07283554 0.05301457
000090 73 30 8e 3c 37 cf 6c bd 00 c7 a4 3d e3 17 92 3d
       0.017357087 -0.057814803 0.08045769 0.07133462
0000a0 01 78 c0 bc 69 9a f3 bc d5 7a 64 bd e3 74 77 bd
       -0.023494722 -0.029736714 -0.055781204 -0.060414206
0000b0 40 76 7e 3d be 2d fe 3c d4 84 47 bd 71 e9 aa 3b
       0.06212449 0.031027671 -0.04871066 0.0052158167
0000c0 35 32 fa bc 8b 2f 5c 3d 7a c8 1a 3d 8a 0c 91 bb
       -0.030541519 0.053756278 0.037788846 -0.0044265436
0000d0 61 6e 10 3d 54 70 fe bb bd 66 74 bc 24 b8 6a 3c
       0.035261516 -0.0077648554 -0.014917073 0.014326129
0000e0 4a ba 18 3b a6 1a 9d bd 0d e9 6c 3d 41 03 fd bc
       0.0023304396 -0.076710984 0.057839442 -0.03088534
0000f0 2e 74 b0 3c 26 24 64 3d 51 96 5a bb 98 9f 28 bd
       0.021539774 0.055698536 -0.0033353756 -0.041167825
000100 7a 97 ff bc c7 22 2b bd 9d 4f a0 bb 82 98 05 bd
       -0.03120016 -0.041781213 -0.004892303 -0.032616146
000110 60 d6 87 bd 2b a3 44 3d 69 51 34 3d a3 5e 1b bd
       -0.06632686 0.04800717 0.04402295 -0.03793205
000120 99 75 48 bd fb 8c 59 3d e2 1e d3 bc 84 5b a6 3b
       -0.048940275 0.053112965 -0.025771562 0.0050768275
000130 95 0b 38 3c 8f 2d 02 3d 8b 5d fe bd b6 cb 58 3b
       0.01123323 0.03178173 -0.12420186 0.0033080406
000140 26 6e 21 bd 40 09 16 bb 58 3d 34 bd cf 5c 50 bd
       -0.039411686 -0.0022893697 -0.044003814 -0.05086976
000150 44 60 0e bc c0 fb 90 bc a4 fc 1b bd 3c 51 3c bc
       -0.008689944 -0.017698169 -0.038082734 -0.011493977
000160 84 54 63 3d 5f ce 35 bd 34 1d 18 bd ec 23 06 bd
       0.055500522 -0.044386264 -0.037137225 -0.0327491
000170 67 1c e7 bc a2 21 2c bd 8c 65 30 3d f0 e0 4d bd
       -0.028211785 -0.042024262 0.043065593 -0.050263345
000180 67 73 37 bc ee bc 9f bc 99 fe 43 bc 5b c7 7b 3d
       -0.011196948 -0.019499268 -0.011962556 0.061469417
000190 fc 01 9b 3c 73 c8 49 3c 0f 33 f9 3c d8 8b bc 3b
       0.018921845 0.012315857 0.030419854 0.0057539754
0001a0 bc db 5a bc 61 99 1c bd 73 88 37 bd 30 9c 12 3c
       -0.013358053 -0.03823221 -0.044807862 0.008948371
0001b0 1c 06 e3 b9 02 86 09 bd 3c 46 20 3d ea 51 42 bb
       -0.00043301366 -0.033575065 0.03912948 -0.0029650875
0001c0 66 51 43 3d ba 9a 3c 3d 7a 16 72 3d b3 1b 8e bc
       0.04768505 0.046045996 0.059103467 -0.017347192
0001d0 12 2b 91 bd 89 ac 4c 3c bf 5c 35 bd 09 65 b5 bc
       -0.07088293 0.012492307 -0.044277903 -0.022142904
0001e0 c4 a8 16 bd 0d 1b 0a 3d 3e db 95 3d 46 b0 f2 bc
       -0.03678204 0.033717204 0.07317208 -0.02962507
0001f0 56 34 04 bd 06 f4 c7 3c 1c ab 8d bd fe 9c d8 3c
       -0.032276474 0.024408352 -0.06917402 0.026442047
000200 da eb 8e bc ca 27 3d bc 54 05 9e bc 17 c1 45 bd
       -0.017446447 -0.011545131 -0.01928965 -0.048279848
000210 c6 ca d0 3c f1 7b 31 bc a9 53 8f bd a5 95 0f bd
       0.025487315 -0.010832773 -0.06998379 -0.03505482
000220 3e 64 3e bd aa 2a 1a bd b6 37 de 3c d0 bc dc 3c
       -0.046482317 -0.037638344 0.027126174 0.026945502
000230 17 30 05 3d 0b a6 f5 3c 34 c9 f0 3c 28 17 69 bc
       0.032516565 0.029986402 0.029392816 -0.014226712
000240 23 db 09 3d 3a 3a c9 bc 61 48 37 bd f1 b9 4f 3d
       0.03365625 -0.024563897 -0.04474676 0.050714437
000250 e1 68 20 3d c9 6d 62 bb fa fe bb 3c f1 7b 0b 3d
       0.03916252 -0.00345503 0.02294873 0.034053747
000260 75 89 2e bd ab 51 e5 bc 49 44 27 3d 8c 35 4a bd
       -0.042611558 -0.027993044 0.040836606 -0.049367473
000270 f7 aa 6f 3c 38 63 01 3d 0e 80 f8 bc 94 25 a9 3c
       0.014628164 0.031588763 -0.030334499 0.020647801
000280 c3 61 20 3c 6b 2b 32 3d 6b 27 2e bd dc e8 2b 3d
       0.009788933 0.043498438 -0.04251806 0.04197012
000290 cf 3f 12 bd 34 a5 3e bc 84 26 37 bb 94 99 05 3d
       -0.035705384 -0.011636067 -0.002794654 0.032617167
0002a0 2c f7 8d bc 93 b1 57 bc 98 8f 95 3d 23 83 b3 bb
       -0.017329775 -0.013164896 0.07302779 -0.005478279
0002b0 37 3a 83 3c 44 d7 77 3d 14 e4 f0 bd c2 96 4a bd
       0.01601897 0.060508028 -0.117622524 -0.04946018
0002c0 6e b3 a5 3c a1 cb 35 bd df c2 0e bd da 17 93 ba
       0.02022716 -0.04438365 -0.034853812 -0.0011222318
0002d0 fe 79 04 3d 9f 73 72 bc c9 23 50 bd d2 5c b0 3c
       0.032342903 -0.014798074 -0.050815377 0.021528635
0002e0 93 4b b1 bb 0f d3 62 3d 5c e9 2c 3d c4 44 a6 bd
       -0.0054106205 0.055377062 0.042214736 -0.08118585
0002f0 23 7e 86 ba 9f f6 9d 3c b5 31 4c 3d 72 b3 40 3d
       -0.001026098 0.019282637 0.04985209 0.047046132
000300 3a 52 0f bc 01 32 04 bd c0 c4 28 bc 08 53 db 3c
       -0.008747632 -0.03227425 -0.010300815 0.02677299
000310 06 f3 66 bc 29 ba 83 3d a6 62 f1 3c 5c c8 48 3d
       -0.014096027 0.064319916 0.029465985 0.049019203
000320 b9 e7 56 3d 89 19 39 3d d8 76 53 3d cb a3 8f 3d
       0.05246708 0.045190368 0.05162701 0.07013663
000330 cc 7c 84 bc d8 05 79 3b b8 64 89 bd 00 9a ae 3d
       -0.016172789 0.0037997868 -0.06708664 0.08525467
000340 c4 84 5c 3c a3 d2 ee 3b 46 7e 70 3c 9f d6 58 3d
       0.013459388 0.0072882934 0.014678543 0.052939054
000350 e7 1a 5e bd 49 de 92 3a 3d 8e 93 3d 60 9e d2 bc
       -0.054224875 0.0011205162 0.07204864 -0.025710285
000360 c0 87 aa bb 66 2a 35 3d 8c e8 c3 3c 70 3e 97 3b
       -0.005204171 0.044229887 0.023914598 0.0046155974
000370 9e 29 c2 bc 0e b5 84 3c 1a f3 8f 3b 14 35 f0 3b
       -0.023701485 0.016199615 0.0043929936 0.007330546
000380 b8 50 55 3d 42 23 99 3d fe ac e6 3c 99 91 3d 3d
       0.052078933 0.07477428 0.028158661 0.04628143
000390 69 15 45 3d 3d b1 0b bd 1e 79 87 3d 7f f5 e1 3d
       0.04811612 -0.034104574 0.06614898 0.11033153
0003a0 0b 65 8f 3d 5b 6b e3 bc 41 cf e0 bc fc 5c a9 bb
       0.07001694 -0.027761152 -0.027442576 -0.0051685553
0003b0 c4 91 37 3c b8 f2 70 bd 48 13 70 3c 1f 65 5b bd
       0.011204187 -0.058825225 0.0146530345 -0.053563233
0003c0 39 49 1f 3d 47 84 c7 3c a4 e3 f6 bc 6e 12 7f bc
       0.03888819 0.024355067 -0.030137844 -0.015568359
0003d0 3e f2 93 bc dc 96 e0 3c 92 28 66 bd 66 1a 46 bd
       -0.018059846 0.027415685 -0.056191035 -0.04836502
0003e0 ba d9 1e bc 4d 3f 0a 3d 89 b7 bf 3c 4e 89 ab 3c
       -0.009695465 0.033751775 0.023402946 0.020939495
0003f0 60 0e 8c 3c b7 95 03 bd 18 10 0d 3d 3e a9 ad bc
       0.017096698 -0.0321252 0.034439176 -0.021198865

fc1.bias f4 [50]
000000 a6 4d 8a 3c 7c d7 19 bd 74 eb 11 bd 83 ba e5 3d
       0.016882729 -0.037559018 -0.035624936 0.11217215
000010 03 95 e5 bb 27 3d fe bc 8f 03 e1 3e 58 94 f2 3e
       -0.007006289 -0.03103502 0.43948027 0.47378802
000020 16 9c 55 bd 69 2b a2 3e 92 75 ef bc 08 17 1d 3d
       -0.05215081 0.31673744 -0.029230867 0.038352042
000030 b2 d5 81 3c 59 ae ac bc 65 46 87 bc 74 65 bb bc
       0.015848968 -0.02107923 -0.016513059 -0.022875525
000040 fd 93 3b bd 5e f3 dc bc b5 2c ee bb e9 1a ff bc
       -0.04579543 -0.026971515 -0.007268513 -0.031140761
000050 56 58 a1 bc fa 29 27 bc 0b ea 6c 3c 44 90 9d 3e
       -0.019695442 -0.010202879 0.014460097 0.30774128
000060 9c 6e 4e bc f8 6c a4 3e 3b f8 a3 bc f0 cf dc 3e
       -0.0125996135 0.32114387 -0.020015826 0.43127394
000070 10 b9 05 bc c4 38 12 3e e5 e7 80 3e 3a 7e 50 bd
       -0.008161798 0.14279467 0.2517692 -0.05090163
000080 a0 61 ed 3e ba 65 66 bd 1c 02 7e 3e 8b 8d cf 3e
       0.46363544 -0.056249358 0.24805492 0.40537676
000090 3f 9b de 3e 9c 8b 20 bc 80 c7 5e bd 19 cc 9f 3e
       0.43477818 -0.0097989105 -0.054389477 0.31210402
0000a0 c5 d5 6a b9 7c 9c 70 bc 0f 11 ed 3d 5e 8a 5f bd
       -0.00022395614 -0.014685746 0.11575519 -0.054575317
0000b0 84 e4 f5 bb ee 34 a8 b6 aa ac 38 bd b0 32 4a bd
       -0.007504048 -5.012952e-06 -0.04508654 -0.049364746
0000c0 6f 8b 15 3e 9a b9 0c 3e
       0.14603971 0.13742676

fc2.weight f4 [10, 50]
000000 8b 7c 50 3e 4a 13 87 be e3 f1 8b bd 0d 7f 08 3e
       0.2036001 -0.26381904 -0.068332456 0.13329716
000010 31 bb 6d bc c9 55 b9 3c 2e ee f0 3e 79 02 11 3f
       -0.014509962 0.022623913 0.47056717 0.566444
000020 7c f7 90 be d1 d0 7d 3e 49 0d 83 be ee 5a b4 bc
       -0.28313816 0.24786688 -0.25596073 -0.022016015
000030 f9 8f 79 3b 12 bd 67 be 31 69 a3 be 3a 41 26 be
       0.00380802 -0.22630718 -0.31916192 -0.1623582
000040 c2 95 1c be db d9 39 be b7 1c 3d be 54 50 9b be
       -0.15291503 -0.18149512 -0.18467985 -0.30334723
000050 d5 b5 47 be 95 df ee bd b0 35 3a 3d 18 c7 b8 3e
       -0.19502957 -0.11663739 0.045461357 0.36089396
000060 45 24 6f be 31 43 c2 3e e7 ab 56 be be 77 a5 3e
       -0.2335368 0.37941888 -0.20964013 0.3231792
000070 c1 58 6d bd b3 b9 6c 3e 3b 99 71 3e 84 2c 84 be
       -0.05794597 0.23117714 0.23593609 -0.25815213
000080 43 40 1a 3f 39 06 8e be 19 8a 8a 3e 18 eb f3 3e
       0.60254306 -0.27739123 0.27058485 0.476403
000090 dc 6a e2 3e 09 39 f6 bd f9 c7 68 be 57 7c bb 3e
       0.44222152 -0.12022597 -0.22732534 0.366183
0000a0 9d 34 32 be 99 fe 50 be 34 f1 e9 3d 65 b3 31 be
       -0.17402883 -0.20409621 0.11422959 -0.1735359
0000b0 e8 43 7b be 89 0f 7b bd e7 ce 77 be 61 4e b1 bc
       -0.24537623 -0.061294112 -0.2420002 -0.02164382
0000c0 a1 ee 5d 3e 6b 97 6e 3e d8 8b 3d 3e 99 1c b6 be
       0.21673061 0.23299949 0.18510377 -0.35568693
0000d0 99 2a 91 3e af 2f 2c 3e 84 6f 0e 3e e6 77 26 be
       0.28352812 0.16815065 0.13909727 -0.16256675
0000e0 c6 97 f0 bd c8 cf 0a be 51 a7 5f be 99 6b 7f 3e
       -0.117476985 -0.13555825 -0.2184117 0.24943389
0000f0 35 85 09 3e 38 09 22 3e 65 a1 1d be 8a 30 5d be
       0.1342972 0.15823829 -0.15393598 -0.21600547
000100 c1 b6 3b 3e ce e0 81 3e a1 6d 60 3e e9 5d 64 be
       0.18331434 0.25366825 0.2191682 -0.22301449
000110 44 2c 23 3e 91 00 29 3e b5 e8 de 38 b2 8b 8d 3e
       0.15934855 0.16504122 0.0001062913 0.27645642
000120 f0 7a 1b be 36 25 a0 3e 19 f9 70 3e 56 5c 3d be
       -0.15183616 0.3127839 0.23532523 -0.18492255
000130 a0 50 2b be b3 34 28 3e 04 2c 28 be 4e 14 ee bd
       -0.16729975 0.16426353 -0.1642304 -0.116249666
000140 98 32 9c be 4c 6e 59 be f9 a2 d7 bd 5b 5f 60 be
       -0.3050735 -0.21233481 -0.105291314 -0.21911375
000150 1a a2 57 3e 1c b9 b6 bd 3b f0 aa 3e 57 af 6c 3e
       0.2105793 -0.089220256 0.33386406 0.23113762
000160 6f 8c a4 bd 6e 4b 0d be 26 3f 38 3e 47 9a 45 3e
       -0.08034598 -0.13798305 0.17992839 0.19297133
000170 85 69 9b 3d 8a 4e 83 3e 86 d3 3f 3e 23 9a 38 be
       0.07588486 0.25645858 0.18733034 -0.18027548
000180 3a e8 95 be 5f 09 7e be e2 05 96 3e 47 0b 33 be
       -0.29278737 -0.24808262 0.29301363 -0.1748477
000190 ab f3 6a 3e be c2 74 3e 10 68 80 3e 14 66 d6 be
       0.22944514 0.23902413 0.25079393 -0.41874754
0001a0 d1 94 52 be f9 57 96 3e dd 2a 9b 3e 09 b5 14 be
       -0.20564581 0.29363993 0.3030614 -0.14522184
0001b0 6a 2c 24 3e 73 e7 4c 3e e8 d6 0c 3e 5c 45 42 3e
       0.16032568 0.20010166 0.13753855 0.18971771
0001c0 bf 71 7c 3e 27 1f 7d 3e ab 79 99 be 5d c8 6c 3e
       0.24652766 0.24718915 -0.29975638 0.23123308
0001d0 96 75 40 be b7 2e a4 be 16 f7 78 3e 22 5d 35 3e
       -0.18794855 -0.3206689 0.24313006 0.17711309
0001e0 91 87 b3 bd ea 5b 64 3e fc 28 99 bd 62 91 7a 3e
       -0.087660916 0.22300687 -0.0747852 0.24469522
0001f0 73 f4 b1 be a8 6a 75 be 57 63 59 3e 6a 52 3d be
       -0.34756812 -0.23966467 0.21229301 -0.1848847
000200 19 68 97 bd fe ab 09 be e6 85 92 be 1e d3 86 be
       -0.07392902 -0.13444516 -0.2861778 -0.26332945
000210 1e e2 4a bc 77 84 53 3e dc 76 3f 3e 6c ca 97 3e
       -0.012383012 0.20656 0.18697685 0.29646623
000220 d1 58 4f be 0a 52 72 be 65 22 30 3c be 6a 01 be
       -0.20248725 -0.23664108 0.010750388 -0.12638375
000230 f7 09 2d 3e 0c 16 55 bd 98 a0 e1 3d eb e8 9c 3e
       0.16898333 -0.05202298 0.11016959 0.30646452
000240 5b 43 dc be d2 7a c9 bd 69 65 52 3e 9d fb 82 3e
       -0.43020138 -0.09837879 0.20546497 0.2558259
000250 d7 cb b1 be e6 3e 88 3e d4 72 51 bb 05 21 9e bd
       -0.3472583 0.26610488 -0.0031959312 -0.07721142
000260 ab f4 53 be 36 a7 3c 3e 27 ca e2 3d ee ac 7e 3e
       -0.20698802 0.18423161 0.11073714 0.24870655
000270 3b 99 ea bd 87 05 19 be 53 77 52 3e 6f 97 62 3e
       -0.11455008 -0.14943515 0.20553331 0.2212808
000280 90 85 27 3e a0 15 3b 3e fb 2c 2a be 65 ad 8b bd
       0.16359544 0.18269968 -0.16618721 -0.06820182
000290 5f 4a 65 3e 3e 8a 4c be b5 8e 94 be d0 ff 6c 3e
       0.22391652 -0.1997461 -0.29015127 0.2314446
0002a0 11 f2 66 3e ef 4f 4e 3e 0c 32 6b 3e 38 60 70 3e
       0.22553279 0.2014768 0.2296831 0.23474205
0002b0 65 3a 64 be d0 49 8e bc 2e 8f 83 3e ec 26 9f 3e
       -0.22287901 -0.01736918 0.25695175 0.31084383
0002c0 5c df aa 3e 95 c3 4d 3e 71 43 9d 3e 82 f6 81 be
       0.33373535 0.2009414 0.30715516 -0.25383383
0002d0 a6 41 93 be b6 5c 63 be 48 ae ba bd d2 3c 87 be
       -0.28761023 -0.22203335 -0.09115273 -0.2641359
0002e0 5d 32 9d be 6e f5 38 bd 1c 8e 4a be 27 0a 55 be
       -0.30702487 -0.045155935 -0.19780773 -0.20804654
0002f0 48 19 69 3e 42 2e 88 be 17 9a e4 bd c5 73 59 be
       0.2276355 -0.26597792 -0.11162203 -0.21235569
000300 b8 b2 84 be c8 93 19 be a6 c4 37 bd 4d ef c9 3c
       -0.25917602 -0.1499778 -0.044865273 0.02465024
000310 97 d9 8b 3e 50 3c 44 be 3b 63 28 be fb b0 c8 bd
       0.27314445 -0.19163632 -0.16444103 -0.09799381
000320 32 9b a1 bd e6 c6 15 be d8 7b 9f 3e dc 4d 53 3d
       -0.07890929 -0.14626655 0.31149173 0.051587924
000330 49 c4 5c 3e 51 9c 22 be 54 7d 89 be d7 cc 35 bd
       0.21559252 -0.15879942 -0.2685343 -0.044384804
000340 3f 30 69 be e7 25 67 be f3 30 29 be 7c c5 5d be
       -0.2277231 -0.22573052 -0.16522579 -0.21657366
000350 37 01 88 3e b2 5b a1 be ea e1 65 3e b9 5c db 3d
       0.26563427 -0.3151527 0.2244946 0.10711045
000360 8b 60 15 be f9 18 19 3e 10 99 62 be 4f b7 b8 bd
       -0.1458761 0.14950933 -0.22128701 -0.09019338
000370 c1 c3 86 3e dd 99 6c 3e 3b ec 77 3e 31 12 96 3e
       0.26321223 0.23105569 0.24211209 0.29310754
000380 85 d6 51 bd c2 f6 02 be f7 3b 17 be 53 87 46 3e
       -0.051229972 -0.12789443 -0.14768969 0.1938756
000390 1e 33 89 3e 19 45 97 be 7a 17 54 bd ea 4b 24 3e
       0.26796812 -0.29544905 -0.0517802 0.16044584
0003a0 e9 ba 37 be d2 1f 86 3e e2 7c 83 3e 59 b9 7a be
       -0.17942394 0.26196152 0.25681216 -0.24484767
0003b0 1c a6 98 3e 4b 7a 95 3e 5f 0d 6a 3e f8 90 70 bd
       0.2981423 0.29194865 0.22856663 -0.058732003
0003c0 20 f2 5d 3e fd 20 0e 3e 85 dc 28 3e 33 eb c7 bd
       0.21674395 0.13879772 0.16490372 -0.097616576
0003d0 6b bd 81 be b9 0b 56 bd 57 7b 71 3e 1a 03 6e 3e
       -0.25339827 -0.052257273 0.23582207 0.2324337
0003e0 80 21 fd bd cc fa f6 bd 55 21 16 be 60 d5 1c be
       -0.12359905 -0.120595545 -0.14661153 -0.15315771
0003f0 99 d7 ae bd 26 aa 48 3e d2 bf 5c 3e f3 2b 1a be
       -0.08537216 0.19596156 0.21557549 -0.15055828

fc2.bias f4 [10]
000000 c7 e5 9a 3f f1 c1 43 be 5f 8f 99 be 94 30 2d bc
       1.2101372 -0.19116952 -0.29992196 -0.010570664
000010 1a 69 7d be c4 b5 dc bd 4e 74 d5 bd 9e df 7c be
       -0.24747124 -0.107768565 -0.10422574 -0.24694678
000020 18 93 6a be c9 01 53 bc
       -0.22907674 -0.012878844
