NRmodel.pth (torch, 701888 bytes, 8 tensors)

conv1.weight f4 [10, 1, 5, 5]
00000000: 9dd7 c1bd 1a28 16be 30a2 a6bd 273b 133e
00000010: 85b4 523c 359f 113d ce07 823e 9122 ec3e
00000020: b41d 4e3e 2a09 5f3e 9e06 e0bd e6a8 b03e
00000030: 1ca1 cc3e 951d 753e 1eef f4bd f0b5 333e
00000040: a6f3 243d 4266 903e d1a9 803e e0e2 033e
00000050: 236d f13a 78fe 9ebe e54f 1fbe 44b8 723e
00000060: f932 a3bd d412 6fbe 76c9 b3bb 80a2 a83d
00000070: 9e06 903e 911d 6f3e b75e 463e 3d48 5a3e
00000080: 33f9 5fbd a43a a33e f32c a7bd 0414 5e3e
00000090: b065 113d dfc5 943e 8762 d83e f88d 523e
000000a0: 617a 883e 455c 83bd f577 0a3e b397 fc3e
000000b0: 7c60 953e 7d87 443e a92a 0b3b 7527 bb3e
000000c0: c3de d43e fb36 b73d ecf3 553e 1abd 883e
000000d0: e729 98be 5de8 5d3d a18f 733e 8529 b9bc
000000e0: ed78 5fbe f38c cfbe be66 dc3d 46df de3e
000000f0: 87f3 64be d0b7 edbe 7e39 b5be 09ea 81bb
00000100: 1574 7b3e ad51 4d3e c32a 653e d6c0 a8be
00000110: 1ae3 20bf 5cdf 98be df8d 0b3f 6781 b53e
00000120: eb04 2a3e da5d 2ebe fb25 d93d f7e3 b03e
00000130: 3dde ba3e e6df 4e3e 5efd d8be 58e6 13be
00000140: 0c8b 2ebe 2b54 88bd 8a07 dbbe ba6a 9ebd
00000150: 0ecc 8e3e 3fe8 21be 77fd bfbe 5d88 febd
00000160: 541d 733e 2fe2 923e 2ce1 6fbe c9d8 6c3d
00000170: 55de 513e e373 b93a faf1 9d3e c17c 05be
00000180: 2db9 fbbd cb11 083e 6678 8cbe eb31 9a3d
00000190: 3594 9b3e 2e87 e63e a173 d23e a89e d33e
000001a0: c652 233e 6626 643e 80ab d13e 1430 963e
000001b0: 4310 f63e f0bc 75bd e241 293d 376f a83e
000001c0: ff80 8d3e 041b 4c3e 3635 023d 5ef3 633e
000001d0: 8d4a 823e fea2 35bd c01e 21be f4cf b0be
000001e0: 1295 5ebd a7cd 9a3e 3654 6d3e 9679 9cbb
000001f0: 8073 963e c630 e83e 0276 fb3e 7067 8a3e
00000200: 5c57 19be 4e99 8f3e 69c5 803d d353 de3e
00000210: 8104 35be 310d 13bf dbce 853c efed 3fbe
00000220: 7c3e 5fbd 99ef 0bbf 1e54 a5be d909 9f3e
00000230: c5eb d1be 4f68 88be 277a 8fbe 311d 2b3d
00000240: c2d4 8f3e 1ecf 7cbe df6f 36bd bca5 29be
00000250: c7e5 703e 461d e03e 8c86 69be 95b4 21be
00000260: e28c 853e b9d2 c93b 49c5 67bc 3bf2 8cbb
00000270: fcd0 aebe 3ed9 733e cdf3 06bd 5020 703d
00000280: 4bed 473e 218d 9abe 9841 87bd 3b14 afbc
00000290: 20b9 1ebd 24b9 e03c 2c9b d0be 8675 153e
000002a0: 5cf9 8cbd d433 8a3e 8a3f 103e 79b0 90be
000002b0: 2f40 3f3c b30b 213d d1f1 17be cd17 91bc
000002c0: 962a 99be f6b5 353e 9d62 9f3e c7aa 84bd
000002d0: 6362 11bf b23a 0f3e 903d ad3e d715 553e
000002e0: cb89 3abd 2aab 25bf 7999 523d 8f5a 0d3e
000002f0: de80 37bd 2878 b33e d3f3 debd 3cee 06be
00000300: 7ff8 543e cd90 b03e 7ade 8a3d 43ce 023d
00000310: 76d3 57be abd5 44be d6b1 debd a2cf 5ebe
00000320: 7ae1 3fbe 9671 f93d 02a2 593e a510 53bd
00000330: 86fc be3e 1ab4 85be e41f 2ebe 1d16 a7bd
00000340: fafa d73d d9d6 673e ea0a 723e 0521 a03e
00000350: 6dc3 4e3e 81ec 823e 5398 aabc 3c90 8e3d
00000360: b970 edbd 79ec 0abc 5e07 36bd 9eff b8be
00000370: cbe2 2a3e d6c9 843e 2e40 79bd f3a6 e7bd
00000380: fd0f aabe ad2b db3e 791c da3e ce9b dd3e
00000390: a263 c33c dae2 50bd 9632 a83d 5c98 653c
000003a0: 43b4 003e fc3d d0bb 76e7 0ebf 2fbc 65be
000003b0: c119 b5bd 152e 42be 936f d1be 0aae 1abf
000003c0: 31ed 9b3e e7d6 a33e b576 d0bc aa29 03be
000003d0: b0fb a6be 2f5d b33e d50c 303e 0cce a33e
000003e0: e4b9 4dbe ef6d 91be
-0.09464953 -0.14663735 -0.081364036 0.14378034 0.012860422 0.035552222 0.2539658 0.46120122
0.20128518 0.2178084 -0.10938762 0.3450386 0.39966667 0.23937066 -0.119596705 0.17549872
0.040271424 0.28203017 0.2512956 0.12879515 0.0018419366 -0.3105352 -0.15557821 0.23703104
-0.07968707 -0.23347026 -0.0054866625 0.082341194 0.2813005 0.23351122 0.19372068 0.21316619
-0.054681014 0.31880677 -0.0816287 0.21687323 0.035497367 0.29057214 0.4226267 0.2056197
0.26655868 -0.064140834 0.13522322 0.49334487 0.29175174 0.1919231 0.0021235144 0.3655354
0.41576204 0.089460336 0.2089383 0.26706773 -0.2971947 0.054176677 0.23785259 -0.022602806
-0.21823473 -0.40537223 0.10761784 0.4352972 -0.22358523 -0.464293 -0.35395426 -0.0039646667
0.24556 0.20050688 0.22379594 -0.32959622 -0.6284653 -0.2985791 0.54513353 0.3545029
0.16603439 -0.17027989 0.10602947 0.34548923 0.3649768 0.20202598 -0.42380804 -0.14443338
-0.1704523 -0.06656679 -0.4277919 -0.077352 0.27890056 -0.15811251 -0.37498066 -0.12428353
0.23741657 0.2868819 -0.2342574 0.05782393 0.20494969 0.0014148917 0.30848676 -0.13035871
-0.12291179 0.13288037 -0.27435607 0.07529052 0.3038651 0.4502501 0.41103843 0.41331983
0.15949544 0.22280273 0.40951157 0.29333556 0.48059282 -0.059994638 0.041322596 0.3289735
0.2763748 0.1993218 0.031789027 0.22260806 0.25447503 -0.044344895 -0.15734386 -0.34533656
-0.054341383 0.30235025 0.23176655 -0.0047752364 0.29384995 0.4534971 0.4911347 0.27032042
-0.14974731 0.2804665 0.06287653 0.43423328 -0.176775 -0.57442003 0.016333988 -0.18743108
-0.05450295 -0.5466247 -0.3229074 0.310622 -0.4100019 -0.2664208 -0.28022882 0.041775886
0.2809201 -0.24688384 -0.044540282 -0.16567129 0.23525153 0.43772334 -0.22805232 -0.15791543
0.26084048 0.0061591533 -0.014146158 -0.004301337 -0.34143817 0.2381334 -0.03294735 0.058624566
0.19524114 -0.30185798 -0.06604308 -0.021371951 -0.038750768 0.027432032 -0.40743387 0.14595613
-0.06883499 0.26992667 0.14086738 -0.28259638 0.011673017 0.039317798 -0.1483834 -0.017711544
-0.29915303 0.17745194 0.31129923 -0.06477886 -0.5679075 0.13987234 0.3383603 0.20809112
-0.045541566 -0.647143 0.051415894 0.13804077 -0.04480063 0.3505261 -0.108863495 -0.13176817
0.20797919 0.34485474 0.06780715 0.031934988 -0.2107676 -0.19222133 -0.10873763 -0.21758893
-0.18738356 0.12179868 0.21253207 -0.051529545 0.37302035 -0.2611397 -0.17004353 -0.08158515
0.10545917 0.22640552 0.23636976 0.31275192 0.20191737 0.25571063 -0.020824587 0.06961104
-0.11593766 -0.008479231 -0.04444062 -0.3613252 0.16688077 0.2593524 -0.060852222 -0.1131114
-0.33215323 0.4280676 0.42599848 0.43282932 0.02385122 -0.050997593 0.082127735 0.014013376
0.12568764 -0.0063550454 -0.5582193 -0.22435068 -0.08842803 -0.18962891 -0.40905437 -0.6042181
0.304544 0.31999895 -0.025447229 -0.12808862 -0.32613897 0.3503203 0.17192395 0.3199314
-0.20090443 -0.28404185

conv1.bias f4 [10]
00000000: 277d a13d 5f4a 54bd d559 8c3e 99cb 6e3e
00000010: f041 bf3d 382d 133e 882f 9c3e 62c5 983e
00000020: 2521 fe3a 6894 c43d
0.07885199 -0.05182874 0.27412286 0.23319854 0.093387485 0.14372718 0.30505013 0.2983809
0.001938854 0.09598619

conv2.weight f4 [20, 10, 5, 5]
00000000: 9b99 133d 8877 2cbd ecbb 603d 85a8 66bd
00000010: 5e55 59bd dc5e 2a3d 223f 093d 6702 403d
00000020: 89a8 2cbd 3274 4b3b 4264 61bd 3e09 5abd
00000030: 01ba 053c 1f47 573c 5d09 443d d2f9 263d
00000040: af34 283c 1570 75bc 9136 a7bc 9edb 31bd
00000050: 931e c7bc 020e ec3c f3ec efbc eb9a 3b3d
00000060: e04b 48bd ec8f c5bc 77c4 cd3c 7470 d4bb
00000070: 3f13 49bd 7359 213c 4750 04bd c64b d03c
00000080: e6a0 923d fe5c 88bd a08f bcbc b7ae 673c
00000090: 8652 19bd 7179 ffbc 6f58 80bc 1772 283d
000000a0: c138 15bb 0eb1 aa3d b277 9c3d 5148 5d3d
000000b0: 8805 80bd 20c3 743c ca09 a7bd 02b4 5ebd
000000c0: 0bc2 07bd c09e 68bd 4035 ae3c 62f2 3b3d
000000d0: 11ce 063d be0e 85bd 1560 49bd 9c8e 12bd
000000e0: 4440 cc3c 4135 423d 9fcb 1bbc f7be 813d
000000f0: 9363 5cbc 4d69 4d3d f549 713d 4f61 b0bb
00000100: 00b6 d23c cb2a e93b c188 e6bb 66cf e6bb
00000110: 5292 0a3d 5fc4 91bc e7fc 483d b2f7 0a3d
00000120: e255 2f3d 05b5 f9bc 7c5a c93c 776e 9cbb
00000130: b789 d73c 0cb6 b3bc 1e79 803c 62af 41bd
00000140: 604a 143d 7504 1c3d bd08 0dbd 5956 9a3d
00000150: 505f 123d 197c 58bd bf47 b13c 9e93 1a3d
00000160: 5a18 8cbc 0df1 2e3c 6771 92bd 07da 23bd
00000170: ed54 2d3c 9d0a 113d 6e56 9b3c 7ce6 27bd
00000180: 1315 09bd 7186 443d 8270 b93c c65b 94bd
00000190: 49f8 f13b fa73 7dbd 20d1 653c b3ca 40bc
000001a0: 0a7c 803c caec 503c a176 243c ae6b f0bc
000001b0: e8ef 8b3d e419 233d 5d34 f2bc 09e7 323d
000001c0: 97ac 783c 7c5d fcbc 5a08 a3bd d816 41bc
000001d0: a234 06bc 46c4 483d 7e57 d1bc 7350 2a3c
000001e0: 7920 983d 42cf 9ebc b82a 77ba 07a9 5f3d
000001f0: 883e 00bd 8652 01bd 404c 03bd 3302 0d3d
00000200: 0a51 1dbd 49f9 383c 8257 9a3a 466f 213c
00000210: 4c56 6cbd 80c0 45bc e540 823d 0103 abbc
00000220: 54d5 5bbd 3b13 f1bc 4b9d 03bd a325 ff3c
00000230: 53fc 92ba ceca abbb cf4b 58bc 0645 d3bc
00000240: dbe7 91bd 6c6d 35bd ac4e 90bc 7af5 ae3d
00000250: be43 423d aecf e33c 649a 293c 54dc 9dbc
00000260: 25fd 40bd f4cf 39bd 3d88 e33c 8af9 303d
00000270: d930 26bd 866d ffbc b43d a53c f80c 30bc
00000280: 8baf 3c3d 0ba0 833c 8785 1ebd 7eb0 023d
00000290: e34b 39bd 6927 88bd 8882 483c ac33 893c
000002a0: c530 563d b9f3 0b3d 6c32 0b3d 2d2d 633d
000002b0: c8fd 5a3d 072b e6bc 7f18 a03c 7319 533d
000002c0: 9bdb 8cbd c32d 913d a7fc 583b 4bbd 043d
000002d0: a770 c93c 5516 8cbd f70e 423d 46a6 5c3d
000002e0: 23dd 753d a5f9 a03c 488e 803c 3a32 853c
000002f0: 9a29 fdbc 2751 433c 229c 8bbd 2aaa de3a
00000300: ed2b 333d 01c4 5fbd 2580 773d 5462 a8bc
00000310: 9299 72bd 58c7 0fbd 40e7 d73c 0425 3fbc
00000320: 00d9 4cbd 7340 d0bb ce63 c93c 3d8f e63b
00000330: 575a 43bd 7f75 13bd 9792 413c 81f1 15bd
00000340: d8cf 063d 93e7 69bd 49b3 683d f243 a5bc
00000350: 0967 2abd 4b24 31bd 36e2 1d3c 34f6 833d
00000360: 3f2c 83bc d378 97bb eb49 2c3d 0c8d c0bc
00000370: 34fe 983d c49b e5bc a9d6 1e3d eba3 c0bc
00000380: 7c06 843d 4010 d8bc 5622 33bd ae3e 80bd
00000390: f150 293d 8bfd 223d 8348 723b 8a3c 2b3d
000003a0: 20e8 a83d 03ab b63d 61e2 77bd e63c 2abd
000003b0: 11cf 9a3c 7c59 d03d cc5b 55bc 9993 8a3c
000003c0: 6d79 a4bd 8765 f3bc 0e7c 883d b52c 7c3d
000003d0: 7e17 793b b3af 783d 400e 6bbd 1e80 63bd
000003e0: 7b18 dc3c 35a4 083d cda5 fbbb 3847 a23d
000003f0: 0a55 e1bb 6645 703c 49b7 283d 4b55 d8bc
0.03603516 -0.04210618 0.054866716 -0.056313056 -0.053059928 0.04159437 0.033507474 0.04687729
-0.042152915 0.00310446 -0.055027254 -0.05323147 0.008162023 0.013139515 0.047860492 0.04076559
0.010266467 -0.014980336 -0.020411761 -0.043422334 -0.024306571 0.028815273 -0.02928779 0.04580204
-0.048900485 -0.024116479 0.025118096 -0.006483132 -0.04909062 0.0098479865 -0.03230312 0.025426757
0.07159595 -0.06658362 -0.023017704 0.014140776 -0.037432216 -0.031185837 -0.015667168 0.04112443
-0.0022769424 0.08334552 0.076400176 0.054024044 -0.06251055 0.0149391 -0.08156164 -0.054370888
-0.03314404 -0.05679202 0.021265626 0.04588545 0.032911364 -0.064969525 -0.049163897 -0.035780534
0.024932988 0.047414068 -0.009508996 0.06335252 -0.013451475 0.05014925 0.05890842 -0.005382694
0.02572155 0.007115697 -0.0070353453 -0.007043767 0.03383095 -0.017793832 0.04906931 0.033927627
0.042806514 -0.030481825 0.02457928 -0.0047739106 0.026310785 -0.021937393 0.015682753 -0.0472864
0.036203742 0.038090188 -0.03443216 0.07536001 0.03573543 -0.052852724 0.021640657 0.037738435
-0.017101455 0.010677588 -0.07150536 -0.04000285 0.01057933 0.035410512 0.018962111 -0.04099129
-0.033467364 0.047979776 0.022636656 -0.07244067 0.007384334 -0.061878182 0.01402691 -0.011767077
0.015684146 0.012751767 0.010038049 -0.02934822 0.06832868 0.039819613 -0.029565984 0.043677364
0.015177867 -0.030806296 -0.07960577 -0.0117852315 -0.00819126 0.049015306 -0.025554415 0.010395157
0.07428069 -0.019385938 -0.0009428668 0.054604556 -0.031309634 -0.03157284 -0.03205514 0.034425925
-0.038407363 0.011289903 0.0011775347 0.00985319 -0.057699487 -0.012069821 0.06360034 -0.020875456
-0.053670242 -0.029428115 -0.03213243 0.031145876 -0.0011214114 -0.005242682 -0.013201668 -0.025789749
-0.07124301 -0.044293806 -0.017615639 0.08542915 0.047427885 0.02780899 0.010351751 -0.0192701
-0.047116417 -0.045364335 0.027774924 0.04320673 -0.04057393 -0.031180155 0.020171024 -0.0107452795
0.04606585 0.016067525 -0.03870156 0.031906597 -0.045238387 -0.06648142 0.012238152 0.016748272
0.052292604 0.03416798 0.033983633 0.055463005 0.05346468 -0.028096689 0.01954293 0.051537942
-0.06877824 0.070888065 0.0033109577 0.032407086 0.02458985 -0.06840197 0.047377553 0.05386951
0.060025346 0.01965029 0.015692845 0.016259301 -0.030903626 0.011921204 -0.06816889 0.0016987969
0.043743063 -0.054630283 0.060424943 -0.020554699 -0.059228487 -0.03510222 0.026355386 -0.01166654
-0.050011635 -0.006355339 0.024583723 0.0070361183 -0.047693577 -0.036000725 0.011814735 -0.03660727
0.03291306 -0.057105612 0.056811605 -0.020174 -0.04160217 -0.043247502 0.009636452 0.06443444
-0.01601231 -0.0046225577 0.04206268 -0.023504756 0.074703604 -0.028028376 0.038778935 -0.023515662
0.06446549 -0.026374936 -0.043733917 -0.06261955 0.041336957 0.03979258 0.003696949 0.04180578
0.08247399 0.08919337 -0.060518626 -0.041561984 0.018897565 0.10173318 -0.013022374 0.016916083
-0.08030973 -0.029711498 0.066642866 0.061566073 0.0038008387 0.060714435 -0.057386637 -0.055542104
0.026867142 0.033359725 -0.007679677 0.0792374 -0.0068765925 0.014664983 0.04119042 -0.026407858

conv2.bias f4 [20]
00000000: 5387 73bd 2f09 443c 7da9 083d 0f43 563d
00000010: 0b88 4abd 011f d6bc 574d dabc 4ce1 44bc
00000020: 2d65 81bc cb12 00bd 4fef c8bb b863 abbc
00000030: 16a5 00bd 3089 b53c 6773 743d 4b5e 423b
00000040: 8a27 3e3d eb61 a73c 3b34 1b3d d965 c23c
-0.059455227 0.01196508 0.03336476 0.052310046 -0.049446147 -0.02613783 -0.026648207 -0.012016606
-0.015795315 -0.031267922 -0.0061320434 -0.020921573 -0.03140744 0.022160143 0.05968037 0.0029658254
0.046424426 0.020432433 0.037891608 0.023730205

fc1.weight f4 [512, 320]
00000000: d005 ea3c b7c4 06bd b719 e1bc f71e f03c
00000010: 973d 7d3c f872 33bd 3996 3f3d f087 1bbd
00000020: fd31 db3b d48d 043d cf4a d9bc f141 0bbd
00000030: 53bb 77bc 0487 51bd f278 fdbc 9bd2 c8bb
00000040: 6cf0 753c 8e1c 00bd 1251 14bd 7fe5 413d
00000050: 0f2e 553d 0ac9 5dbb 9470 f2bb 4087 8a3c
00000060: c17a 203d 93a5 2fbd 1296 9c3c d856 323d
00000070: 4f87 013d 9f00 433c e3ef 0f3b aa04 ad3c
00000080: dfd5 e0bc 52bb 623c 6e6c 233d 6ce7 33bb
00000090: 4b8f d53c 20df 033d 77c1 173d 5f66 b53b
000000a0: b659 453d 4868 88bd de5e c13c d528 403c
000000b0: 99ae 6abc 1cf5 073d c33b 55bd 36f2 13bd
000000c0: 086f b6bb 98d8 1c3d 6cbf b93c 0d0e 4abd
000000d0: 83e6 e23b fb38 7bbc 3c31 55bd d708 003d
000000e0: ac55 83bc 41d2 1d3b 3863 283d b0e2 17bc
000000f0: e7f7 5a3d a208 4dbc 1715 13bd dad3 53bd
00000100: 61e5 c13c 1d6a bdbc 6d05 db3c 571a abbc
00000110: d775 c9bb 50e3 33bc 104f 88ba dba9 38bd
00000120: bc13 48bd 33e6 9bbc f2f0 fe3c 1889 5c3d
00000130: 749d d23c 67f9 fc3c 55b1 e1bc 0dd1 54bd
00000140: 8e35 f1bc 1d8b 0dbd 1c67 44bd 63f0 c43c
00000150: d9de 01bc 32d2 5eba 9ad9 143d 5858 39bd
00000160: bc1d 09bd 73c0 11bd 4c6c a33b a34f 933c
00000170: 74de 383d 4de4 9e3c 1505 863c 977d c73c
00000180: 429c 5fbd 3e2a 38bc 70a8 38bd c81f 2ebc
00000190: 50c4 253d ad29 7539 e273 99bc 362b 1c3d
000001a0: 000e 19bc 086e c93c c951 05bc bd0a dfbb
000001b0: 194f 64bd 6623 363d 157d 063d 58c3 0cbc
000001c0: c899 593c 09e3 ffbc 840f d23c 1241 403d
000001d0: c4d2 0dbd dc57 3c3d a2ba 28bd 5a48 643d
000001e0: d83d fdbc 5bb6 613b 30b9 47bd d0b3 abbc
000001f0: 7c7a 41bd 389f 733c aca5 133d 9ac0 62bd
00000200: f1cc 443c e1cc dd3c 724d 493d 3c79 4a3d
00000210: 3654 cf3c 344c 54bb 5e33 093c b608 10bd
00000220: 63a2 d6ba 8d98 14bc 81b6 f83c d6ed 3ebc
00000230: 2afc 9cbc ded2 56bd 674c 8cbc e6b8 c4bc
00000240: 7805 06bc 46df 2dbd a394 603d 3acb 753a
00000250: bec0 57bc 9708 35bd 315f 75bc 57dd b739
00000260: 1958 453d 99cc 83bc d58f 0d3b 9df6 913b
00000270: 5f17 a53b 3d19 53bd b66d 35bd 8ee8 173d
00000280: 0333 04bc f404 2ebd 12d0 483d 86a5 333c
00000290: 8d4f 40bd a6be 11bd 1966 04bd 4f93 e7bb
000002a0: 8b32 283d 94e7 d7bc 731a 49bd d41f d3bc
000002b0: 1744 3b3d 6e29 4cbc c4df eebc 0cdf 333c
000002c0: 0e5a 64bd 98f2 08bc b0e9 3e3c 061f fabc
000002d0: c55e 0abb 9a85 06bd 0825 4a3d f8fc c63b
000002e0: 62b9 223d c88a d13c e764 34bd 3001 34bd
000002f0: 6f47 3dbd 8186 52bd 9508 2cbd 5791 e3bc
00000300: eb50 13bd 07f3 98bc 0955 a9bc c056 073d
00000310: 7b90 2abd 00e5 09bd 252d f43c 7bac be3c
00000320: 0757 3ebd 948c 233d e59a 69bd 6d55 d13b
00000330: 44cc 96bc 15fd d5bc 4efa f53c 510b e6bc
00000340: 307c 28bc 6268 38bd 307f 8d3b 904f f93c
00000350: cea1 50bd 24a6 c6bc 3893 043c 4c0c 0a3d
00000360: 3c5b a93c 60bd 473d 40fc bc3c bc08 5e3d
00000370: 942e 2c3d 6c40 3fbd 8075 853a af5d 2bbd
00000380: b174 f03b be44 68bc 3d20 893c e86a bcbc
00000390: a569 ebbc 305d 253b bacd 1f3d e797 40bb
000003a0: 077d 1bbc caa6 0bbc 529f b13c 962b 2ebd
000003b0: 089b d73c 362b 0abd 21cb cebc f288 adbb
000003c0: 8c73 49bd 397a 813d 6e32 6a3d 2f1a 093d
000003d0: 2efa 2a3c 0f59 d73a f0e7 04bc 4b21 363c
000003e0: 6085 a03c 31f0 1cbd fb10 453d 631a b4bb
000003f0: 47c5 2bba cf13 113d 1cd3 163d 0888 18bd
0.028567225 -0.032902446 -0.027478082 0.02931164 0.015456579 -0.043810815 0.046774123 -0.037971437
0.0066893087 0.03236182 -0.02652493 -0.033998434 -0.015120345 -0.05115415 -0.03094146 -0.0061286218
0.015010934 -0.031277232 -0.036210127 0.047338005 0.052045878 -0.0033841752 -0.0073986743 0.016910195
0.039179567 -0.042882513 0.019114528 0.043539852 0.03162318 0.011902004 0.0021963052 0.021120388
-0.027445732 0.013838606 0.03989833 -0.002745117 0.026069304 0.03219521 0.037049737 0.005535885
0.04818126 -0.06660515 0.023604807 0.011728485 -0.014323854 0.03319274 -0.052058946 -0.036119662
-0.005567435 0.038292497 0.022674285 -0.049329806 0.006924452 -0.015333409 -0.052048907 0.03125843
-0.016032062 0.002408162 0.041110247 -0.009270355 0.053459074 -0.012514265 -0.035908785 -0.05171571
0.023668947 -0.023121888 0.026735986 -0.020886583 -0.006148081 -0.0109794885 -0.0010399539 -0.04508386
-0.048846945 -0.019030666 0.031120751 0.05384168 0.025709845 0.030880643 -0.027550379 -0.05195718
-0.029444482 -0.034556497 -0.047949895 0.024040407 -0.007926666 -0.00084999495 0.036340334 -0.045250267
-0.033475623 -0.035583925 0.004987275 0.01798231 0.045134023 0.019395972 0.016359845 0.024351878
-0.05459238 -0.01124054 -0.04508251 -0.010627694 0.04047042 0.00023380546 -0.018732015 0.038127147
-0.009341717 0.0245886 -0.008137175 -0.0068067 -0.055739496 0.044467352 0.03283413 -0.008591495
0.013281293 -0.031236188 0.025642164 0.046937056 -0.03462483 0.045982227 -0.041193612 0.055733062
-0.030913278 0.0034440968 -0.048760593 -0.020959765 -0.04723595 0.014869504 0.03604667 -0.05535946
0.012011752 0.027075233 0.049146123 0.049432024 0.02530871 -0.0032394053 0.008374063 -0.035164557
-0.0016375299 -0.009069574 0.030360462 -0.011653384 -0.01916321 -0.052447192 -0.017126275 -0.024013948
-0.008180015 -0.04244926 0.05482925 0.00093762914 -0.013168512 -0.044197645 -0.014976309 0.0003506939
0.04817972 -0.01608877 0.0021600623 0.0044544474 0.0050381864 -0.05153774 -0.04429408 0.037087016
-0.008068803 -0.042485192 0.049026556 0.010964757 -0.046950866 -0.035582207 -0.03232393 -0.007067121
0.041063827 -0.026355542 -0.04909749 -0.025772013 0.045719232 -0.0124610495 -0.029159434 0.0109784715
-0.055749945 -0.00835862 0.011652395 -0.030532371 -0.0021113616 -0.032842256 0.049351722 0.0060726367
0.039727576 0.025578871 -0.04404154 -0.043946445 -0.046210703 -0.051397804 -0.042000372 -0.027779264
-0.03596584 -0.018670572 -0.02067043 0.033041716 -0.041641694 -0.033665657 0.029806683 0.023275604
-0.046469714 0.039928988 -0.057032485 0.0063883574 -0.018407948 -0.026121655 0.030026581 -0.028081568
-0.010283515 -0.045021422 0.0043181404 0.030433446 -0.05093556 -0.024249144 0.00809174 0.033703133
0.020673387 0.048764586 0.0230695 0.05420755 0.042036608 -0.046692297 0.0010182112 -0.04183739
0.0073381294 -0.014176546 0.016739005 -0.023000196 -0.028736899 0.0025232546 0.039014556 -0.0029387416
-0.009490258 -0.008523652 0.021682415 -0.042522036 0.026319042 -0.033732615 -0.025243344 -0.005295866
-0.04918246 0.0632214 0.057177 0.033472236 0.010435624 0.001642974 -0.008111939 0.011116336
0.019594848 -0.038315002 0.048111897 -0.0054963096 -0.0006552529 0.03541928 0.036822423 -0.037239105

fc1.bias f4 [512]
00000000: 4196 83bb 2c5b c536 affe 03bd a6ba dcbc
00000010: 39c8 30bd c6c3 edbb ef5a ff3d 982b 37bd
00000020: f6b7 9c3e 9599 65bb af30 563e 5e1b 5bbd
00000030: e92d 49bb 649d 92bc b12d 993c bdae 863c
00000040: 0530 94bc 40f5 95bb 15b6 093e da41 e0bc
00000050: 423d a13d 80cd ec3d dfae acbb d3d9 b5bc
00000060: 9f67 84bc 70c3 023d 7fe7 a73d 8e7e 75bb
00000070: 675a 813e 1d3c 44bb a20b 063d 21f7 7ebc
00000080: ef74 11bc 3ec0 98bc aa3a 00bc 3687 853e
00000090: 100a eb3b e867 0b3d 15b7 a5bc c2a1 f33d
000000a0: e839 a73c 3249 1c3e f0d4 3fbb 92a5 6abd
000000b0: 3ca8 523e 26d6 3abd c0ee 903e 7041 233c
000000c0: d259 bfb8 b253 e1bc 856b 903e ce7e 9abc
000000d0: 29a7 6d3e fa65 abbb aeff d4b8 d5b1 fd3d
000000e0: 06bd 4b3e 3e8d 96bb eb9d 84bc 09f0 20bb
000000f0: 9b2c c83d 3f6d 7b3e e067 fb3d 05f1 12bd
00000100: 022e 96bb 0a85 133e 4f41 debb 0edd 00bd
00000110: ca4b fdba bd1b 9c3e adff 6a3e e8c3 15bc
00000120: 588b 3f3e fc37 4bbc 7227 fd3b ae05 193e
00000130: cd31 913c 5281 db3d 07e5 24bd 9d75 e1bc
00000140: 7ba6 adbc a99d 0dbc 8b02 6ebc 7b65 353e
00000150: 4efc a43d 6bc2 163d 0dc8 afbc 484d c1bc
00000160: 5378 13bd aaf6 2b3d cb8e 86b8 9cea e9ba
00000170: 381c 6c3e d273 d4bb 7050 31bb 3ddd 293d
00000180: c7cf 833d 2311 88bc 481c 1abd 625f a73e
00000190: 3d43 dabc 9bd1 8cbc a154 f83c d4fd 8ebb
000001a0: 571e a5ba 1a03 2c3e 49dc b0b9 0e3a ccba
000001b0: 5b10 c6bc 02d0 a0bb ac8c 3fbc 526c b7b8
000001c0: edb8 46bc 5abf 40bd beaa e8bc c14d fdbc
000001d0: 56db 66bb 9202 83bc b9d6 0a3b 7f46 72bc
000001e0: 8716 f13d 575c 7bbc c303 083e 0132 a8bb
000001f0: cb9c dbbc 81af 28bd fd72 4ebd 58c1 a2bc
00000200: 39a9 2dbd c313 b3ba dc8e b8bc eb71 163e
00000210: e4d0 8bbc 9213 26bd 5642 a2bb 3576 a7bb
00000220: b78a dd3d 67dd 0f3e 4e3e 42bc a3a7 b6ba
00000230: b6df 24bd 2714 2d3a a8bc d9bc 0e01 f83d
00000240: 9fc7 503e d6d0 64bc 95f6 37bd dcc0 b5bc
00000250: ac1d 0dbd 07ce 613d 3afd 65bd 1b0d 82bc
00000260: 88c8 703e 7ec9 59bb d754 c53d 2749 babb
00000270: d4b9 37bc 940c 4b3e b78d 03bd efe6 c93c
00000280: 3251 6b3e c320 0dbd d027 e6bc 3f62 2abb
00000290: d3f7 8e3d b216 5fbd 0b08 ff3d b9b1 c9bb
000002a0: 5041 c5bb e179 9e3d 1b0d 113e 2c6b e8bc
000002b0: 94e7 a53e aac2 3cbd cf79 6b3e d4ae 54bb
000002c0: 7d53 943d 2ae5 63bd ce83 b33e b32d c5bc
000002d0: f238 d43c 87d2 67b7 9910 9bbc 7ac8 1cbc
000002e0: 4be2 6c3e d818 62bb 9f67 553d 4a7a e6bb
000002f0: 15d7 533d 2b2d e73d 7719 c63d eadb fcbc
00000300: 3c46 95bc 6aa4 24bb 32f9 703b 15f3 6a3c
00000310: 28a1 9ebb a5f2 243e aa4d ebbc c9c4 5d3d
00000320: 8c00 8c3e c6c9 52b7 512c dabb d5de 6b3d
00000330: 26ab 883e e5da dabb 8d30 aabb f66e b93e
00000340: 0e7a d9bc 0583 273e e661 d13d 9f3a bbbb
00000350: ac24 e0bc 496d 45bd 7e0a 1fbd d776 ffbc
00000360: ce59 3fbd 1bb5 93ba dcc1 d33d dd84 28bc
00000370: 6490 023d e392 30bd 01ed b13d efe7 08bd
00000380: 77f2 4bbd 2489 233d f41d 36bc c6eb fc3d
00000390: 41e0 78bc 0ac9 0abb a334 b13d 2fe0 143e
000003a0: 538a 56bd bdec ba3d d9c0 3bbb 2335 52bd
000003b0: 3d11 173e d8c5 03bd e248 e43d 9862 83bd
000003c0: 3602 e7bc 6279 c7bc 6701 313d de7f 1cbb
000003d0: bd6f ac3d 884b 72bc fdd3 90ba 82ef 65bd
000003e0: e543 95bb 1f4e c6ba 2af3 893d cd16 0dbc
000003f0: 0a15 4cbd b20c 943e d778 cfb9 f2f1 1dbd
-0.0040157144 5.8816713e-06 -0.032225307 -0.02694447 -0.043159697 -0.007256004 0.12468516 -0.04471931
0.306091 -0.003503417 0.20917009 -0.053492896 -0.003069753 -0.017897315 0.018698545 0.016440744
-0.018089304 -0.004576355 0.13448365 -0.02737515 0.07873012 0.115626335 -0.0052698697 -0.022198593
-0.016162692 0.031924665 0.08198451 -0.0037459466 0.25264284 -0.0029943057 0.032725938 -0.01556185
-0.008877977 -0.018646356 -0.007826487 0.2607972 0.0071728304 0.03403464 -0.020228902 0.11896087
0.020413354 0.15262297 -0.0029271208 -0.057286806 0.20571989 -0.045614384 0.28307152 0.009964332
-9.12432e-05 -0.02750573 0.2820703 -0.018859293 0.23208298 -0.0052306624 -0.00010156572 0.123874344
0.19896325 -0.004594474 -0.016188582 -0.0024557135 0.09774133 0.24553393 0.12275672 -0.035874385
-0.0045831213 0.14406219 -0.0067826877 -0.031460814 -0.0019324955 0.30489913 0.22949095 -0.009140946
0.18705499 -0.012403484 0.0077256495 0.14943573 0.017723942 0.10718025 -0.04025748 -0.027521903
-0.021197548 -0.008643546 -0.0145269735 0.17714493 0.08055936 0.036806505 -0.021457696 -0.02359642
-0.036003422 0.041983284 -6.416215e-05 -0.0017846408 0.2305764 -0.0064835334 -0.0027056 0.041470755
0.06436115 -0.016609734 -0.037624627 0.3268996 -0.02664339 -0.017189791 0.030313792 -0.0043637548
-0.0012597543 0.16798058 -0.0003373346 -0.0015581266 -0.02417772 -0.004907609 -0.011691254 -8.746296e-05
-0.012129051 -0.047057487 -0.028401729 -0.030920865 -0.003522595 -0.015992437 0.0021185114 -0.014787315
0.11771875 -0.01534184 0.13282685 -0.005132914 -0.026808163 -0.041183 -0.05040263 -0.019867584
-0.04239771 -0.0013662506 -0.022529058 0.14691894 -0.01706738 -0.040546007 -0.0049517555 -0.005110527
0.108174734 0.14049302 -0.011855675 -0.0013935458 -0.04025241 0.0006602429 -0.026579216 0.12109576
0.2038865 -0.013965806 -0.044912893 -0.02218669 -0.034452125 0.055128124 -0.0561497 -0.01587539
0.23513997 -0.003323167 0.096353225 -0.00568499 -0.0112137385 0.19829017 -0.03211757 0.02464625
0.22980192 -0.034455072 -0.028095156 -0.00259985 0.069808625 -0.054465003 0.12452706 -0.0061552194
-0.0060197487 0.0773809 0.14165156 -0.028371416 0.32403243 -0.046084084 0.22995685 -0.0032452838
0.072424866 -0.05563847 0.35061496 -0.024069643 0.02590606 -1.381769e-05 -0.018928813 -0.009569282
0.23133199 -0.0034499671 0.052100774 -0.007033621 0.05171879 0.11287912 0.09672826 -0.030866582
-0.018221967 -0.0025122412 0.0036769626 0.014340182 -0.0048409887 0.16108187 -0.028723557 0.054142747
0.27344167 -1.2563954e-05 -0.006658115 0.057585556 0.26693076 -0.0066789263 -0.005193776 0.3621747
-0.026547458 0.16358574 0.10223751 -0.0057137753 -0.027361237 -0.048199926 -0.038828366 -0.031184597
-0.046716504 -0.0011269184 0.1033971 -0.010285583 0.031875983 -0.043108832 0.08687783 -0.033424314
-0.04979178 0.03992571 -0.01111554 0.12349658 -0.015190185 -0.0021176958 0.08652618 0.14538644
-0.05237801 0.091271855 -0.0028648882 -0.051320206 0.1475267 -0.0321711 0.11146714 -0.0641529
-0.028199296 -0.024349872 0.043214228 -0.0023879926 0.0841975 -0.014788516 -0.0011049506 -0.056136616
-0.004555213 -0.0015129483 0.06735833 -0.008611393 -0.049824752 0.28915936 -0.0003957215 -0.038560815

fc2.weight f4 [10, 512]
00000000: c5f9 2d3d 6d66 22bd a8d5 143d 3c42 80bd
00000010: 9c36 9abc 720d bebd 24b1 dc3d e5e8 c33c
00000020: f9ea 953e ff95 97bd eefd 513e 1391 44bd
00000030: 68f4 f5bc 54e6 49bd 9505 643b 2595 dabb
00000040: 74bf 45bd 6c0c 25bd 6c71 043e 6035 a9bd
00000050: e1c8 4c3d 1b08 d23d 8bfd 76bc 1dcb a03d
00000060: 606a 3bbe fbb5 303c bded 443d 0f1e 3ebd
00000070: 9ee7 753e 77a7 06be 8a35 273c 9d2a e9bd
00000080: 1dc2 dcbd f82e 173d e66a ebbb 00e7 7c3e
00000090: b3e4 dfbc b08c 3b3c 3b58 a2bd 4134 ac3d
000000a0: b574 64bc 2e62 103e 6949 94bd 4ce8 14bd
000000b0: 34c2 473e 57de 9d3c 66a8 863e 79da 2ebc
000000c0: 37e9 edbd 3918 dd3c 4392 883e 6632 2dbe
000000d0: a2bd 693e 15fc 16be a1b0 5fbd dfae ee3d
000000e0: 9b7e 483e a4c4 1ebd 31ed b2bd 7715 a9bd
000000f0: fd68 9d3d b27c 6e3e 97a5 df3d 22e2 e5bd
00000100: 5563 03be 136b 073e 2d18 a7bd 6250 72bd
00000110: a3b7 17bd 73b8 8c3e d972 523e e750 14bd
00000120: 857a 353e c9c6 34bd 3290 deba f96f 113e
00000130: 947e 813a 7afe a73d 0d73 b6bc 31b3 8dbd
00000140: 69b5 a1bd c92f 2cbe badd 91bd 0bf4 353e
00000150: 2e92 7b3d 2840 003c e099 9fbd dd9e 56bd
00000160: 6088 b13b 3161 e93c d223 c7bd c9b9 29bd
00000170: 097f 633e 826a 6bbd 07e0 03be 9ebe 32b8
00000180: ff17 1f3d 3353 10be 169b 5e3c e1bb 9e3e
00000190: 5edf 8bbd 3de4 1b3c 040f 95bb d21c 2bbe
000001a0: 67ff d43a f2de 133e fef9 68bd e5aa a6bd
000001b0: 893e a4bd 2fda 53bd eb41 13bd b3e4 4ebc
000001c0: de0b 37bd 5f7a bcbd ce9a 8b3d 1141 60bd
000001d0: 57d5 00be 9473 4dbb a8ba 8bbc 14c8 85bb
000001e0: a4fb b83d 98cc d5bc 768f 083e 46ba 8bbd
000001f0: 170b 06bd 2cd1 f8bc 1d02 acbd 1637 82bd
00000200: ff4a 613c e102 e9bd ad5f b4bd 648b f13d
00000210: e0f2 55bc ced2 a5bc 92f2 8bbd 8332 a0bd
00000220: edc2 b73d ce21 c43d 9600 5dbc 00b5 4ebd
00000230: d785 b0bd 0659 8fbc 20ed 0a3d 12e0 b23d
00000240: 512a 3c3e cc0f d0bd ac7f 5dbd 36db 9abd
00000250: e5e6 7abc 6ff2 003d 7b1b 21bd 2f37 403d
00000260: 196f 573e 9556 efbd 5ef2 8d3d 4e74 c7bd
00000270: d6eb acbc 95c4 223e 5fb2 04bd 11c0 42bc
00000280: 7b61 573e ffb1 54bc 3268 44bd 1c10 88bd
00000290: 7aaa 0a3d e179 bf3c 15fe c63d e38f 55bd
000002a0: 5048 f0bd 5e2c 383d 7fd5 f23d a8be 4bbd
000002b0: afcd 9a3e 844f 98bd eb93 4a3e c1c1 65bd
000002c0: d557 233d a666 f23c 7f3b a93e b0f5 26be
000002d0: 25e0 1dbc 3eb2 70bd a449 0ebd 061c 9cbd
000002e0: 17f1 5c3e 2600 d3bd f711 0b3d 7e23 86bd
000002f0: b7b0 2f3d 6493 b53d 2aef 933d 3fa0 d2bd
00000300: bdac 813c e87f 85bd 4895 03bd e63c 2b3c
00000310: 45c7 b0bd a5f5 003e b2bb f33b e14d d83c
00000320: 6f45 8a3e 0f36 5bbd daf7 14bd 0c40 663c
00000330: 583b 723e 2336 61bc 4cc5 f0bc 0ace b33e
00000340: e57c 693c 8d09 133e 8a84 a23d c13a 99bd
00000350: d08b e63c 7c22 dcbc bfe1 c9bc 419e 113d
00000360: cd0f 7ebd f496 00be e581 8b3d 14f2 cf3b
00000370: da35 1ebb 4489 9c3c 1308 813d 9c16 c73c
00000380: 6cc0 8b3c 274d 5c3c 5de5 81bc c26f c23d
00000390: 6992 e7bd 9e25 99bd 5e90 513d 2c4c f33d
000003a0: 6acc 01bc 1a9e 8b3d eaba babd 25c9 913a
000003b0: b79a 103e 236c 9a3b f429 b13d 0903 3abd
000003c0: d5f4 4e3c 4981 74bd f392 dc3c 89f1 5dbd
000003d0: fd51 933d e8af 15bd ce28 1cbe 1b6f 64bd
000003e0: a981 87bd b122 64bd 5ebd 2c3d 5dd7 59bd
000003f0: 0372 6cbc c0e2 8a3e 9c96 4cbd d1b8 63bd
0.042474527 -0.039648462 0.03633657 -0.06262633 -0.018824868 -0.09279908 0.107759744 0.023914764
0.29280832 -0.07401656 0.20507023 -0.047989916 -0.030023769 -0.049291924 0.0034793366 -0.0066706114
-0.048278287 -0.04029505 0.12933892 -0.082621336 0.04999626 0.10255452 -0.015075098 0.07851241
-0.18302298 0.010785575 0.048078287 -0.046415385 0.24014136 -0.1314982 0.010205636 -0.11385081
-0.10779212 0.036910027 -0.007184374 0.24697495 -0.027330732 0.011447117 -0.07926985 0.08408404
-0.013943841 0.14099953 -0.072405644 -0.036354348 0.19507676 0.019271059 0.26300353 -0.010672205
-0.11616748 0.02698909 0.2667409 -0.16913757 0.22826245 -0.14744599 -0.054611806 0.11654448
0.19579546 -0.03876175 -0.08736647 -0.08256047 0.076860406 0.23289755 0.10920256 -0.11224772
-0.12830861 0.1322444 -0.08158908 -0.05915869 -0.037040364 0.27484474 0.20551623 -0.036209967
0.17722519 -0.04413489 -0.0016980229 0.1420287 0.0009879642 0.082028344 -0.022271657 -0.06918944
-0.07895929 -0.16815104 -0.07122369 0.17768876 0.061418705 0.007827796 -0.07793021 -0.052397598
0.0054178685 0.028488727 -0.09723629 -0.041436944 0.22216429 -0.05747462 -0.12878428 -4.2616033e-05
0.038841244 -0.14094238 0.01358678 0.31002715 -0.06829713 0.009514865 -0.004548909 -0.16710213
0.0016250432 0.14440516 -0.056879036 -0.08138064 -0.0801974 -0.051721748 -0.035951536 -0.012627768
-0.04468905 -0.09203028 0.06816636 -0.054749552 -0.12581383 -0.0031349408 -0.017056778 -0.004082689
0.09032372 -0.026098534 0.13335976 -0.06822638 -0.03272542 -0.030373178 -0.083988406 -0.06358163
0.013750791 -0.11377502 -0.08807311 0.11794165 -0.013058394 -0.020242121 -0.06833376 -0.07822134
0.08972726 0.0957676 -0.013488909 -0.050465584 -0.08619278 -0.017498504 0.033917546 0.08734144
0.18375517 -0.10159263 -0.054076836 -0.075613424 -0.015313839 0.031481203 -0.039332848 0.046927627
0.21038474 -0.11686436 0.069309935 -0.0973898 -0.02110855 0.15895303 -0.03239667 -0.0118866125
0.2103328 -0.012981891 -0.04795093 -0.066436976 0.033853985 0.023373546 0.09716431 -0.052139174
-0.117325425 0.044964187 0.118571274 -0.04974237 0.3023505 -0.074370414 0.19782989 -0.05609298
0.039878685 0.029589962 0.33053204 -0.1630466 -0.00963596 -0.058763735 -0.034738198 -0.076225325
0.21576343 -0.10302763 0.03395268 -0.06549738 0.042893138 0.08866003 0.07223351 -0.10284471
0.015829438 -0.06518537 -0.032124788 0.010451531 -0.08631758 0.12593706 0.0074381465 0.026404323
0.270061 -0.05351835 -0.036369182 0.014053356 0.2365545 -0.013745817 -0.029390953 0.35118133
0.014250969 0.14359112 0.07935436 -0.074819095 0.02814284 -0.026871912 -0.024643777 0.035551313
-0.062026788 -0.12557584 0.06811885 0.0063459966 -0.0024140985 0.019108422 0.06300368 0.024302773
0.017059527 0.013446129 -0.01585644 0.09493972 -0.113072224 -0.07477878 0.05116307 0.11879763
-0.007922271 0.06817265 -0.09117682 0.0011122568 0.14121519 0.004712598 0.0865058 -0.04541305
0.012631615 -0.05969361 0.02692554 -0.054185424 0.071933724 -0.03654471 -0.15249941 -0.05577002
-0.066165276 -0.055697147 0.042172782 -0.053183902 -0.014431479 0.27126122 -0.04994832 -0.055596177

fc2.bias f4 [10]
00000000: 93c2 dd3f a079 d6bd 63dc 4bbe 559b 5abe
00000010: 6296 5abe 22c0 3fbe ee06 4fbe 04c9 2ebe
00000020: b9c5 6fbe 11f7 81be
1.7325004 -0.10472417 -0.1990829 -0.21348317 -0.21346429 -0.18725637 -0.20217487 -0.17068869
-0.23415269 -0.2538381
